…
snapshot_prefix: "ResNet-50_faster_rcnn"
average_loss: 100
iter_size: 2
I0705 13:48:58.540122  8758 solver.cpp:81] Creating training net from train_net file: models/pascal_voc/ResNet-50/faster_rcnn_end2end/train.prototxt
I0705 13:48:58.542017  8758 net.cpp:49] Initializing net from parameters: 
name: "ResNet-50"
state {
  phase: TRAIN
}
layer {
  name: "input-data"
  type: "Python"
  top: "data"
  top: "im_info"
  top: "gt_boxes"
  python_param {
    module: "roi_data_layer.layer"
    layer: "RoIDataLayer"
    param_str: "\'num_classes\': 24"
  }
}
layer {
  name: "conv1"
  type: "Convolution"
  bottom: "data"
  top: "conv1"
  convolution_param {
    num_output: 64
    pad: 3
    kernel_size: 7
    stride: 2
  }
}
layer {
  name: "bn_conv1"
  type: "BatchNorm"
  bottom: "conv1"
  top: "conv1"
  batch_norm_param {
    use_global_stats: true
  }
}
layer {
  name: "scale_conv1"
  type: "Scale"
  bottom: "conv1"
  top: "conv1"
  scale_param {
    bias_term: true
  }
}
layer {
  name: "conv1_relu"
  type: "ReLU"
  bottom: "conv1"
  top: "conv1"
}
layer {
  name: "pool1"
  type: "Pooling"
  bottom: "conv1"
  top: "pool1"
  pooling_param {
    pool: MAX
    kernel_size: 3
    stride: 2
  }
}
layer {
  name: "res2a_branch1"
  type: "Convolution"
  bottom: "pool1"
  top: "res2a_branch1"
  convolution_param {
    num_output: 256
    bias_term: false
    pad: 0
    kernel_size: 1
    stride: 1
  }
}
layer {
  name: "bn2a_branch1"
  type: "BatchNorm"
  bottom: "res2a_branch1"
  top: "res2a_branch1"
  batch_norm_param {
    use_global_stats: true
  }
}
layer {
  name: "scale2a_branch1"
  type: "Scale"
  bottom: "res2a_branch1"
  top: "res2a_branch1"
  scale_param {
    bias_term: true
  }
}
layer {
  name: "res2a_branch2a"
  type: "Convolution"
  bottom: "pool1"
  top: "res2a_branch2a"
  convolution_param {
    num_output: 64
    bias_term: false
    pad: 0
    kernel_size: 1
    stride: 1
  }
}
layer {
  name: "bn2a_branch2a"
  type: "BatchNorm"
  bottom: "res2a_branch2a"
  top: "res2a_branch2a"
  batch_norm_param {
    use_global_stats: true
  }
}
layer {
  name: "scale2a_branch2a"
  type: "Scale"
  bottom: "res2a_branch2a"
  top: "res2a_branch2a"
  scale_param {
    bias_term: true
  }
}
layer {
  name: "res2a_branch2a_relu"
  type: "ReLU"
  bottom: "res2a_branch2a"
  top: "res2a_branch2a"
}
layer {
  name: "res2a_branch2b"
  type: "Convolution"
  bottom: "res2a_branch2a"
  top: "res2a_branch2b"
  convolution_param {
    num_output: 64
    bias_term: false
    pad: 1
    kernel_size: 3
    stride: 1
  }
}
layer {
  name: "bn2a_branch2b"
  type: "BatchNorm"
  bottom: "res2a_branch2b"
  top: "res2a_branch2b"
  batch_norm_param {
    use_global_stats: true
  }
}
layer {
  name: "scale2a_branch2b"
  type: "Scale"
  bottom: "res2a_branch2b"
  top: "res2a_branch2b"
  scale_param {
    bias_term: true
  }
}
layer {
  name: "res2a_branch2b_relu"
  type: "ReLU"
  bottom: "res2a_branch2b"
  top: "res2a_branch2b"
}
layer {
  name: "res2a_branch2c"
  type: "Convolution"
  bottom: "res2a_branch2b"
  top: "res2a_branch2c"
  convolution_param {
    num_output: 256
    bias_term: false
    pad: 0
    kernel_size: 1
    stride: 1
  }
}
layer {
  name: "bn2a_branch2c"
  type: "BatchNorm"
  bottom: "res2a_branch2c"
  top: "res2a_branch2c"
  batch_norm_param {
    use_global_stats: true
  }
}
layer {
  name: "scale2a_branch2c"
  type: "Scale"
  bottom: "res2a_branch2c"
  top: "res2a_branch2c"
  scale_param {
    bias_term: true
  }
}
layer {
  name: "res2a"
  type: "Eltwise"
  bottom: "res2a_branch1"
  bottom: "res2a_branch2c"
  top: "res2a"
}
layer {
  name: "res2a_relu"
  type: "ReLU"
  bottom: "res2a"
  top: "res2a"
}
layer {
  name: "res2b_branch2a"
  type: "Convolution"
  bottom: "res2a"
  top: "res2b_branch2a"
  convolution_param {
    num_output: 64
    bias_term: false
    pad: 0
    kernel_size: 1
    stride: 1
  }
}
layer {
  name: "bn2b_branch2a"
  type: "BatchNorm"
  bottom: "res2b_branch2a"
  top: "res2b_branch2a"
  batch_norm_param {
    use_global_stats: true
  }
}
layer {
  name: "scale2b_branch2a"
  type: "Scale"
  bottom: "res2b_branch2a"
  top: "res2b_branch2a"
  scale_param {
    bias_term: true
  }
}
layer {
  name: "res2b_branch2a_relu"
  type: "ReLU"
  bottom: "res2b_branch2a"
  top: "res2b_branch2a"
}
layer {
  name: "res2b_branch2b"
  type: "Convolution"
  bottom: "res2b_branch2a"
  top: "res2b_branch2b"
  convolution_param {
    num_output: 64
    bias_term: false
    pad: 1
    kernel_size: 3
    stride: 1
  }
}
layer {
  name: "bn2b_branch2b"
  type: "BatchNorm"
  bottom: "res2b_branch2b"
  top: "res2b_branch2b"
  batch_norm_param {
    use_global_stats: true
  }
}
layer {
  name: "scale2b_branch2b"
  type: "Scale"
  bottom: "res2b_branch2b"
  top: "res2b_branch2b"
  scale_param {
    bias_term: true
  }
}
layer {
  name: "res2b_branch2b_relu"
  type: "ReLU"
  bottom: "res2b_branch2b"
  top: "res2b_branch2b"
}
layer {
  name: "res2b_branch2c"
  type: "Convolution"
  bottom: "res2b_branch2b"
  top: "res2b_branch2c"
  convolution_param {
    num_output: 256
    bias_term: false
    pad: 0
    kernel_size: 1
    stride: 1
  }
}
layer {
  name: "bn2b_branch2c"
  type: "BatchNorm"
  bottom: "res2b_branch2c"
  top: "res2b_branch2c"
  batch_norm_param {
    use_global_stats: true
  }
}
layer {
  name: "scale2b_branch2c"
  type: "Scale"
  bottom: "res2b_branch2c"
  top: "res2b_branch2c"
  scale_param {
    bias_term: true
  }
}
layer {
  name: "res2b"
  type: "Eltwise"
  bottom: "res2a"
  bottom: "res2b_branch2c"
  top: "res2b"
}
layer {
  name: "res2b_relu"
  type: "ReLU"
  bottom: "res2b"
  top: "res2b"
}
layer {
  name: "res2c_branch2a"
  type: "Convolution"
  bottom: "res2b"
  top: "res2c_branch2a"
  convolution_param {
    num_output: 64
    bias_term: false
    pad: 0
    kernel_size: 1
    stride: 1
  }
}
layer {
  name: "bn2c_branch2a"
  type: "BatchNorm"
  bottom: "res2c_branch2a"
  top: "res2c_branch2a"
  batch_norm_param {
    use_global_stats: true
  }
}
layer {
  name: "scale2c_branch2a"
  type: "Scale"
  bottom: "res2c_branch2a"
  top: "res2c_branch2a"
  scale_param {
    bias_term: true
  }
}
layer {
  name: "res2c_branch2a_relu"
  type: "ReLU"
  bottom: "res2c_branch2a"
  top: "res2c_branch2a"
}
layer {
  name: "res2c_branch2b"
  type: "Convolution"
  bottom: "res2c_branch2a"
  top: "res2c_branch2b"
  convolution_param {
    num_output: 64
    bias_term: false
    pad: 1
    kernel_size: 3
    stride: 1
  }
}
layer {
  name: "bn2c_branch2b"
  type: "BatchNorm"
  bottom: "res2c_branch2b"
  top: "res2c_branch2b"
  batch_norm_param {
    use_global_stats: true
  }
}
layer {
  name: "scale2c_branch2b"
  type: "Scale"
  bottom: "res2c_branch2b"
  top: "res2c_branch2b"
  scale_param {
    bias_term: true
  }
}
layer {
  name: "res2c_branch2b_relu"
  type: "ReLU"
  bottom: "res2c_branch2b"
  top: "res2c_branch2b"
}
layer {
  name: "res2c_branch2c"
  type: "Convolution"
  bottom: "res2c_branch2b"
  top: "res2c_branch2c"
  convolution_param {
    num_output: 256
    bias_term: false
    pad: 0
    kernel_size: 1
    stride: 1
  }
}
layer {
  name: "bn2c_branch2c"
  type: "BatchNorm"
  bottom: "res2c_branch2c"
  top: "res2c_branch2c"
  batch_norm_param {
    use_global_stats: true
  }
}
layer {
  name: "scale2c_branch2c"
  type: "Scale"
  bottom: "res2c_branch2c"
  top: "res2c_branch2c"
  scale_param {
    bias_term: true
  }
}
layer {
  name: "res2c"
  type: "Eltwise"
  bottom: "res2b"
  bottom: "res2c_branch2c"
  top: "res2c"
}
layer {
  name: "res2c_relu"
  type: "ReLU"
  bottom: "res2c"
  top: "res2c"
}
layer {
  name: "res3a_branch1"
  type: "Convolution"
  bottom: "res2c"
  top: "res3a_branch1"
  convolution_param {
    num_output: 512
    bias_term: false
    pad: 0
    kernel_size: 1
    stride: 2
  }
}
layer {
  name: "bn3a_branch1"
  type: "BatchNorm"
  bottom: "res3a_branch1"
  top: "res3a_branch1"
  batch_norm_param {
    use_global_stats: true
  }
}
layer {
  name: "scale3a_branch1"
  type: "Scale"
  bottom: "res3a_branch1"
  top: "res3a_branch1"
  scale_param {
    bias_term: true
  }
}
layer {
  name: "res3a_branch2a"
  type: "Convolution"
  bottom: "res2c"
  top: "res3a_branch2a"
  convolution_param {
    num_output: 128
    bias_term: false
    pad: 0
    kernel_size: 1
    stride: 2
  }
}
layer {
  name: "bn3a_branch2a"
  type: "BatchNorm"
  bottom: "res3a_branch2a"
  top: "res3a_branch2a"
  batch_norm_param {
    use_global_stats: true
  }
}
layer {
  name: "scale3a_branch2a"
  type: "Scale"
  bottom: "res3a_branch2a"
  top: "res3a_branch2a"
  scale_param {
    bias_term: true
  }
}
layer {
  name: "res3a_branch2a_relu"
  type: "ReLU"
  bottom: "res3a_branch2a"
  top: "res3a_branch2a"
}
layer {
  name: "res3a_branch2b"
  type: "Convolution"
  bottom: "res3a_branch2a"
  top: "res3a_branch2b"
  convolution_param {
    num_output: 128
    bias_term: false
    pad: 1
    kernel_size: 3
    stride: 1
  }
}
layer {
  name: "bn3a_branch2b"
  type: "BatchNorm"
  bottom: "res3a_branch2b"
  top: "res3a_branch2b"
  batch_norm_param {
    use_global_stats: true
  }
}
layer {
  name: "scale3a_branch2b"
  type: "Scale"
  bottom: "res3a_branch2b"
  top: "res3a_branch2b"
  scale_param {
    bias_term: true
  }
}
layer {
  name: "res3a_branch2b_relu"
  type: "ReLU"
  bottom: "res3a_branch2b"
  top: "res3a_branch2b"
}
layer {
  name: "res3a_branch2c"
  type: "Convolution"
  bottom: "res3a_branch2b"
  top: "res3a_branch2c"
  convolution_param {
    num_output: 512
    bias_term: false
    pad: 0
    kernel_size: 1
    stride: 1
  }
}
layer {
  name: "bn3a_branch2c"
  type: "BatchNorm"
  bottom: "res3a_branch2c"
  top: "res3a_branch2c"
  batch_norm_param {
    use_global_stats: true
  }
}
layer {
  name: "scale3a_branch2c"
  type: "Scale"
  bottom: "res3a_branch2c"
  top: "res3a_branch2c"
  scale_param {
    bias_term: true
  }
}
layer {
  name: "res3a"
  type: "Eltwise"
  bottom: "res3a_branch1"
  bottom: "res3a_branch2c"
  top: "res3a"
}
layer {
  name: "res3a_relu"
  type: "ReLU"
  bottom: "res3a"
  top: "res3a"
}
layer {
  name: "res3b_branch2a"
  type: "Convolution"
  bottom: "res3a"
  top: "res3b_branch2a"
  convolution_param {
    num_output: 128
    bias_term: false
    pad: 0
    kernel_size: 1
    stride: 1
  }
}
layer {
  name: "bn3b_branch2a"
  type: "BatchNorm"
  bottom: "res3b_branch2a"
  top: "res3b_branch2a"
  batch_norm_param {
    use_global_stats: true
  }
}
layer {
  name: "scale3b_branch2a"
  type: "Scale"
  bottom: "res3b_branch2a"
  top: "res3b_branch2a"
  scale_param {
    bias_term: true
  }
}
layer {
  name: "res3b_branch2a_relu"
  type: "ReLU"
  bottom: "res3b_branch2a"
  top: "res3b_branch2a"
}
layer {
  name: "res3b_branch2b"
  type: "Convolution"
  bottom: "res3b_branch2a"
  top: "res3b_branch2b"
  convolution_param {
    num_output: 128
    bias_term: false
    pad: 1
    kernel_size: 3
    stride: 1
  }
}
layer {
  name: "bn3b_branch2b"
  type: "BatchNorm"
  bottom: "res3b_branch2b"
  top: "res3b_branch2b"
  batch_norm_param {
    use_global_stats: true
  }
}
layer {
  name: "scale3b_branch2b"
  type: "Scale"
  bottom: "res3b_branch2b"
  top: "res3b_branch2b"
  scale_param {
    bias_term: true
  }
}
layer {
  name: "res3b_branch2b_relu"
  type: "ReLU"
  bottom: "res3b_branch2b"
  top: "res3b_branch2b"
}
layer {
  name: "res3b_branch2c"
  type: "Convolution"
  bottom: "res3b_branch2b"
  top: "res3b_branch2c"
  convolution_param {
    num_output: 512
    bias_term: false
    pad: 0
    kernel_size: 1
    stride: 1
  }
}
layer {
  name: "bn3b_branch2c"
  type: "BatchNorm"
  bottom: "res3b_branch2c"
  top: "res3b_branch2c"
  batch_norm_param {
    use_global_stats: true
  }
}
layer {
  name: "scale3b_branch2c"
  type: "Scale"
  bottom: "res3b_branch2c"
  top: "res3b_branch2c"
  scale_param {
    bias_term: true
  }
}
layer {
  name: "res3b"
  type: "Eltwise"
  bottom: "res3a"
  bottom: "res3b_branch2c"
  top: "res3b"
}
layer {
  name: "res3b_relu"
  type: "ReLU"
  bottom: "res3b"
  top: "res3b"
}
layer {
  name: "res3c_branch2a"
  type: "Convolution"
  bottom: "res3b"
  top: "res3c_branch2a"
  convolution_param {
    num_output: 128
    bias_term: false
    pad: 0
    kernel_size: 1
    stride: 1
  }
}
layer {
  name: "bn3c_branch2a"
  type: "BatchNorm"
  bottom: "res3c_branch2a"
  top: "res3c_branch2a"
  batch_norm_param {
    use_global_stats: true
  }
}
layer {
  name: "scale3c_branch2a"
  type: "Scale"
  bottom: "res3c_branch2a"
  top: "res3c_branch2a"
  scale_param {
    bias_term: true
  }
}
layer {
  name: "res3c_branch2a_relu"
  type: "ReLU"
  bottom: "res3c_branch2a"
  top: "res3c_branch2a"
}
layer {
  name: "res3c_branch2b"
  type: "Convolution"
  bottom: "res3c_branch2a"
  top: "res3c_branch2b"
  convolution_param {
    num_output: 128
    bias_term: false
    pad: 1
    kernel_size: 3
    stride: 1
  }
}
layer {
  name: "bn3c_branch2b"
  type: "BatchNorm"
  bottom: "res3c_branch2b"
  top: "res3c_branch2b"
  batch_norm_param {
    use_global_stats: true
  }
}
layer {
  name: "scale3c_branch2b"
  type: "Scale"
  bottom: "res3c_branch2b"
  top: "res3c_branch2b"
  scale_param {
    bias_term: true
  }
}
layer {
  name: "res3c_branch2b_relu"
  type: "ReLU"
  bottom: "res3c_branch2b"
  top: "res3c_branch2b"
}
layer {
  name: "res3c_branch2c"
  type: "Convolution"
  bottom: "res3c_branch2b"
  top: "res3c_branch2c"
  convolution_param {
    num_output: 512
    bias_term: false
    pad: 0
    kernel_size: 1
    stride: 1
  }
}
layer {
  name: "bn3c_branch2c"
  type: "BatchNorm"
  bottom: "res3c_branch2c"
  top: "res3c_branch2c"
  batch_norm_param {
    use_global_stats: true
  }
}
layer {
  name: "scale3c_branch2c"
  type: "Scale"
  bottom: "res3c_branch2c"
  top: "res3c_branch2c"
  scale_param {
    bias_term: true
  }
}
layer {
  name: "res3c"
  type: "Eltwise"
  bottom: "res3b"
  bottom: "res3c_branch2c"
  top: "res3c"
}
layer {
  name: "res3c_relu"
  type: "ReLU"
  bottom: "res3c"
  top: "res3c"
}
layer {
  name: "res3d_branch2a"
  type: "Convolution"
  bottom: "res3c"
  top: "res3d_branch2a"
  convolution_param {
    num_output: 128
    bias_term: false
    pad: 0
    kernel_size: 1
    stride: 1
  }
}
layer {
  name: "bn3d_branch2a"
  type: "BatchNorm"
  bottom: "res3d_branch2a"
  top: "res3d_branch2a"
  batch_norm_param {
    use_global_stats: true
  }
}
layer {
  name: "scale3d_branch2a"
  type: "Scale"
  bottom: "res3d_branch2a"
  top: "res3d_branch2a"
  scale_param {
    bias_term: true
  }
}
layer {
  name: "res3d_branch2a_relu"
  type: "ReLU"
  bottom: "res3d_branch2a"
  top: "res3d_branch2a"
}
layer {
  name: "res3d_branch2b"
  type: "Convolution"
  bottom: "res3d_branch2a"
  top: "res3d_branch2b"
  convolution_param {
    num_output: 128
    bias_term: false
    pad: 1
    kernel_size: 3
    stride: 1
  }
}
layer {
  name: "bn3d_branch2b"
  type: "BatchNorm"
  bottom: "res3d_branch2b"
  top: "res3d_branch2b"
  batch_norm_param {
    use_global_stats: true
  }
}
layer {
  name: "scale3d_branch2b"
  type: "Scale"
  bottom: "res3d_branch2b"
  top: "res3d_branch2b"
  scale_param {
    bias_term: true
  }
}
layer {
  name: "res3d_branch2b_relu"
  type: "ReLU"
  bottom: "res3d_branch2b"
  top: "res3d_branch2b"
}
layer {
  name: "res3d_branch2c"
  type: "Convolution"
  bottom: "res3d_branch2b"
  top: "res3d_branch2c"
  convolution_param {
    num_output: 512
    bias_term: false
    pad: 0
    kernel_size: 1
    stride: 1
  }
}
layer {
  name: "bn3d_branch2c"
  type: "BatchNorm"
  bottom: "res3d_branch2c"
  top: "res3d_branch2c"
  batch_norm_param {
    use_global_stats: true
  }
}
layer {
  name: "scale3d_branch2c"
  type: "Scale"
  bottom: "res3d_branch2c"
  top: "res3d_branch2c"
  scale_param {
    bias_term: true
  }
}
layer {
  name: "res3d"
  type: "Eltwise"
  bottom: "res3c"
  bottom: "res3d_branch2c"
  top: "res3d"
}
layer {
  name: "res3d_relu"
  type: "ReLU"
  bottom: "res3d"
  top: "res3d"
}
layer {
  name: "res4a_branch1"
  type: "Convolution"
  bottom: "res3d"
  top: "res4a_branch1"
  convolution_param {
    num_output: 1024
    bias_term: false
    pad: 0
    kernel_size: 1
    stride: 2
  }
}
layer {
  name: "bn4a_branch1"
  type: "BatchNorm"
  bottom: "res4a_branch1"
  top: "res4a_branch1"
  batch_norm_param {
    use_global_stats: true
  }
}
layer {
  name: "scale4a_branch1"
  type: "Scale"
  bottom: "res4a_branch1"
  top: "res4a_branch1"
  scale_param {
    bias_term: true
  }
}
layer {
  name: "res4a_branch2a"
  type: "Convolution"
  bottom: "res3d"
  top: "res4a_branch2a"
  convolution_param {
    num_output: 256
    bias_term: false
    pad: 0
    kernel_size: 1
    stride: 2
  }
}
layer {
  name: "bn4a_branch2a"
  type: "BatchNorm"
  bottom: "res4a_branch2a"
  top: "res4a_branch2a"
  batch_norm_param {
    use_global_stats: true
  }
}
layer {
  name: "scale4a_branch2a"
  type: "Scale"
  bottom: "res4a_branch2a"
  top: "res4a_branch2a"
  scale_param {
    bias_term: true
  }
}
layer {
  name: "res4a_branch2a_relu"
  type: "ReLU"
  bottom: "res4a_branch2a"
  top: "res4a_branch2a"
}
layer {
  name: "res4a_branch2b"
  type: "Convolution"
  bottom: "res4a_branch2a"
  top: "res4a_branch2b"
  convolution_param {
    num_output: 256
    bias_term: false
    pad: 1
    kernel_size: 3
    stride: 1
  }
}
layer {
  name: "bn4a_branch2b"
  type: "BatchNorm"
  bottom: "res4a_branch2b"
  top: "res4a_branch2b"
  batch_norm_param {
    use_global_stats: true
  }
}
layer {
  name: "scale4a_branch2b"
  type: "Scale"
  bottom: "res4a_branch2b"
  top: "res4a_branch2b"
  scale_param {
    bias_term: true
  }
}
layer {
  name: "res4a_branch2b_relu"
  type: "ReLU"
  bottom: "res4a_branch2b"
  top: "res4a_branch2b"
}
layer {
  name: "res4a_branch2c"
  type: "Convolution"
  bottom: "res4a_branch2b"
  top: "res4a_branch2c"
  convolution_param {
    num_output: 1024
    bias_term: false
    pad: 0
    kernel_size: 1
    stride: 1
  }
}
layer {
  name: "bn4a_branch2c"
  type: "BatchNorm"
  bottom: "res4a_branch2c"
  top: "res4a_branch2c"
  batch_norm_param {
    use_global_stats: true
  }
}
layer {
  name: "scale4a_branch2c"
  type: "Scale"
  bottom: "res4a_branch2c"
  top: "res4a_branch2c"
  scale_param {
    bias_term: true
  }
}
layer {
  name: "res4a"
  type: "Eltwise"
  bottom: "res4a_branch1"
  bottom: "res4a_branch2c"
  top: "res4a"
}
layer {
  name: "res4a_relu"
  type: "ReLU"
  bottom: "res4a"
  top: "res4a"
}
layer {
  name: "res4b_branch2a"
  type: "Convolution"
  bottom: "res4a"
  top: "res4b_branch2a"
  convolution_param {
    num_output: 256
    bias_term: false
    pad: 0
    kernel_size: 1
    stride: 1
  }
}
layer {
  name: "bn4b_branch2a"
  type: "BatchNorm"
  bottom: "res4b_branch2a"
  top: "res4b_branch2a"
  batch_norm_param {
    use_global_stats: true
  }
}
layer {
  name: "scale4b_branch2a"
  type: "Scale"
  bottom: "res4b_branch2a"
  top: "res4b_branch2a"
  scale_param {
    bias_term: true
  }
}
layer {
  name: "res4b_branch2a_relu"
  type: "ReLU"
  bottom: "res4b_branch2a"
  top: "res4b_branch2a"
}
layer {
  name: "res4b_branch2b"
  type: "Convolution"
  bottom: "res4b_branch2a"
  top: "res4b_branch2b"
  convolution_param {
    num_output: 256
    bias_term: false
    pad: 1
    kernel_size: 3
    stride: 1
  }
}
layer {
  name: "bn4b_branch2b"
  type: "BatchNorm"
  bottom: "res4b_branch2b"
  top: "res4b_branch2b"
  batch_norm_param {
    use_global_stats: true
  }
}
layer {
  name: "scale4b_branch2b"
  type: "Scale"
  bottom: "res4b_branch2b"
  top: "res4b_branch2b"
  scale_param {
    bias_term: true
  }
}
layer {
  name: "res4b_branch2b_relu"
  type: "ReLU"
  bottom: "res4b_branch2b"
  top: "res4b_branch2b"
}
layer {
  name: "res4b_branch2c"
  type: "Convolution"
  bottom: "res4b_branch2b"
  top: "res4b_branch2c"
  convolution_param {
    num_output: 1024
    bias_term: false
    pad: 0
    kernel_size: 1
    stride: 1
  }
}
layer {
  name: "bn4b_branch2c"
  type: "BatchNorm"
  bottom: "res4b_branch2c"
  top: "res4b_branch2c"
  batch_norm_param {
    use_global_stats: true
  }
}
layer {
  name: "scale4b_branch2c"
  type: "Scale"
  bottom: "res4b_branch2c"
  top: "res4b_branch2c"
  scale_param {
    bias_term: true
  }
}
layer {
  name: "res4b"
  type: "Eltwise"
  bottom: "res4a"
  bottom: "res4b_branch2c"
  top: "res4b"
}
layer {
  name: "res4b_relu"
  type: "ReLU"
  bottom: "res4b"
  top: "res4b"
}
layer {
  name: "res4c_branch2a"
  type: "Convolution"
  bottom: "res4b"
  top: "res4c_branch2a"
  convolution_param {
    num_output: 256
    bias_term: false
    pad: 0
    kernel_size: 1
    stride: 1
  }
}
layer {
  name: "bn4c_branch2a"
  type: "BatchNorm"
  bottom: "res4c_branch2a"
  top: "res4c_branch2a"
  batch_norm_param {
    use_global_stats: true
  }
}
layer {
  name: "scale4c_branch2a"
  type: "Scale"
  bottom: "res4c_branch2a"
  top: "res4c_branch2a"
  scale_param {
    bias_term: true
  }
}
layer {
  name: "res4c_branch2a_relu"
  type: "ReLU"
  bottom: "res4c_branch2a"
  top: "res4c_branch2a"
}
layer {
  name: "res4c_branch2b"
  type: "Convolution"
  bottom: "res4c_branch2a"
  top: "res4c_branch2b"
  convolution_param {
    num_output: 256
    bias_term: false
    pad: 1
    kernel_size: 3
    stride: 1
  }
}
layer {
  name: "bn4c_branch2b"
  type: "BatchNorm"
  bottom: "res4c_branch2b"
  top: "res4c_branch2b"
  batch_norm_param {
    use_global_stats: true
  }
}
layer {
  name: "scale4c_branch2b"
  type: "Scale"
  bottom: "res4c_branch2b"
  top: "res4c_branch2b"
  scale_param {
    bias_term: true
  }
}
layer {
  name: "res4c_branch2b_relu"
  type: "ReLU"
  bottom: "res4c_branch2b"
  top: "res4c_branch2b"
}
layer {
  name: "res4c_branch2c"
  type: "Convolution"
  bottom: "res4c_branch2b"
  top: "res4c_branch2c"
  convolution_param {
    num_output: 1024
    bias_term: false
    pad: 0
    kernel_size: 1
    stride: 1
  }
}
layer {
  name: "bn4c_branch2c"
  type: "BatchNorm"
  bottom: "res4c_branch2c"
  top: "res4c_branch2c"
  batch_norm_param {
    use_global_stats: true
  }
}
layer {
  name: "scale4c_branch2c"
  type: "Scale"
  bottom: "res4c_branch2c"
  top: "res4c_branch2c"
  scale_param {
    bias_term: true
  }
}
layer {
  name: "res4c"
  type: "Eltwise"
  bottom: "res4b"
  bottom: "res4c_branch2c"
  top: "res4c"
}
layer {
  name: "res4c_relu"
  type: "ReLU"
  bottom: "res4c"
  top: "res4c"
}
layer {
  name: "res4d_branch2a"
  type: "Convolution"
  bottom: "res4c"
  top: "res4d_branch2a"
  convolution_param {
    num_output: 256
    bias_term: false
    pad: 0
    kernel_size: 1
    stride: 1
  }
}
layer {
  name: "bn4d_branch2a"
  type: "BatchNorm"
  bottom: "res4d_branch2a"
  top: "res4d_branch2a"
  batch_norm_param {
    use_global_stats: true
  }
}
layer {
  name: "scale4d_branch2a"
  type: "Scale"
  bottom: "res4d_branch2a"
  top: "res4d_branch2a"
  scale_param {
    bias_term: true
  }
}
layer {
  name: "res4d_branch2a_relu"
  type: "ReLU"
  bottom: "res4d_branch2a"
  top: "res4d_branch2a"
}
layer {
  name: "res4d_branch2b"
  type: "Convolution"
  bottom: "res4d_branch2a"
  top: "res4d_branch2b"
  convolution_param {
    num_output: 256
    bias_term: false
    pad: 1
    kernel_size: 3
    stride: 1
  }
}
layer {
  name: "bn4d_branch2b"
  type: "BatchNorm"
  bottom: "res4d_branch2b"
  top: "res4d_branch2b"
  batch_norm_param {
    use_global_stats: true
  }
}
layer {
  name: "scale4d_branch2b"
  type: "Scale"
  bottom: "res4d_branch2b"
  top: "res4d_branch2b"
  scale_param {
    bias_term: true
  }
}
layer {
  name: "res4d_branch2b_relu"
  type: "ReLU"
  bottom: "res4d_branch2b"
  top: "res4d_branch2b"
}
layer {
  name: "res4d_branch2c"
  type: "Convolution"
  bottom: "res4d_branch2b"
  top: "res4d_branch2c"
  convolution_param {
    num_output: 1024
    bias_term: false
    pad: 0
    kernel_size: 1
    stride: 1
  }
}
layer {
  name: "bn4d_branch2c"
  type: "BatchNorm"
  bottom: "res4d_branch2c"
  top: "res4d_branch2c"
  batch_norm_param {
    use_global_stats: true
  }
}
layer {
  name: "scale4d_branch2c"
  type: "Scale"
  bottom: "res4d_branch2c"
  top: "res4d_branch2c"
  scale_param {
    bias_term: true
  }
}
layer {
  name: "res4d"
  type: "Eltwise"
  bottom: "res4c"
  bottom: "res4d_branch2c"
  top: "res4d"
}
layer {
  name: "res4d_relu"
  type: "ReLU"
  bottom: "res4d"
  top: "res4d"
}
layer {
  name: "res4e_branch2a"
  type: "Convolution"
  bottom: "res4d"
  top: "res4e_branch2a"
  convolution_param {
    num_output: 256
    bias_term: false
    pad: 0
    kernel_size: 1
    stride: 1
  }
}
layer {
  name: "bn4e_branch2a"
  type: "BatchNorm"
  bottom: "res4e_branch2a"
  top: "res4e_branch2a"
  batch_norm_param {
    use_global_stats: true
  }
}
layer {
  name: "scale4e_branch2a"
  type: "Scale"
  bottom: "res4e_branch2a"
  top: "res4e_branch2a"
  scale_param {
    bias_term: true
  }
}
layer {
  name: "res4e_branch2a_relu"
  type: "ReLU"
  bottom: "res4e_branch2a"
  top: "res4e_branch2a"
}
layer {
  name: "res4e_branch2b"
  type: "Convolution"
  bottom: "res4e_branch2a"
  top: "res4e_branch2b"
  convolution_param {
    num_output: 256
    bias_term: false
    pad: 1
    kernel_size: 3
    stride: 1
  }
}
layer {
  name: "bn4e_branch2b"
  type: "BatchNorm"
  bottom: "res4e_branch2b"
  top: "res4e_branch2b"
  batch_norm_param {
    use_global_stats: true
  }
}
layer {
  name: "scale4e_branch2b"
  type: "Scale"
  bottom: "res4e_branch2b"
  top: "res4e_branch2b"
  scale_param {
    bias_term: true
  }
}
layer {
  name: "res4e_branch2b_relu"
  type: "ReLU"
  bottom: "res4e_branch2b"
  top: "res4e_branch2b"
}
layer {
  name: "res4e_branch2c"
  type: "Convolution"
  bottom: "res4e_branch2b"
  top: "res4e_branch2c"
  convolution_param {
    num_output: 1024
    bias_term: false
    pad: 0
    kernel_size: 1
    stride: 1
  }
}
layer {
  name: "bn4e_branch2c"
  type: "BatchNorm"
  bottom: "res4e_branch2c"
  top: "res4e_branch2c"
  batch_norm_param {
    use_global_stats: true
  }
}
layer {
  name: "scale4e_branch2c"
  type: "Scale"
  bottom: "res4e_branch2c"
  top: "res4e_branch2c"
  scale_param {
    bias_term: true
  }
}
layer {
  name: "res4e"
  type: "Eltwise"
  bottom: "res4d"
  bottom: "res4e_branch2c"
  top: "res4e"
}
layer {
  name: "res4e_relu"
  type: "ReLU"
  bottom: "res4e"
  top: "res4e"
}
layer {
  name: "res4f_branch2a"
  type: "Convolution"
  bottom: "res4e"
  top: "res4f_branch2a"
  convolution_param {
    num_output: 256
    bias_term: false
    pad: 0
    kernel_size: 1
    stride: 1
  }
}
layer {
  name: "bn4f_branch2a"
  type: "BatchNorm"
  bottom: "res4f_branch2a"
  top: "res4f_branch2a"
  batch_norm_param {
    use_global_stats: true
  }
}
layer {
  name: "scale4f_branch2a"
  type: "Scale"
  bottom: "res4f_branch2a"
  top: "res4f_branch2a"
  scale_param {
    bias_term: true
  }
}
layer {
  name: "res4f_branch2a_relu"
  type: "ReLU"
  bottom: "res4f_branch2a"
  top: "res4f_branch2a"
}
layer {
  name: "res4f_branch2b"
  type: "Convolution"
  bottom: "res4f_branch2a"
  top: "res4f_branch2b"
  convolution_param {
    num_output: 256
    bias_term: false
    pad: 1
    kernel_size: 3
    stride: 1
  }
}
layer {
  name: "bn4f_branch2b"
  type: "BatchNorm"
  bottom: "res4f_branch2b"
  top: "res4f_branch2b"
  batch_norm_param {
    use_global_stats: true
  }
}
layer {
  name: "scale4f_branch2b"
  type: "Scale"
  bottom: "res4f_branch2b"
  top: "res4f_branch2b"
  scale_param {
    bias_term: true
  }
}
layer {
  name: "res4f_branch2b_relu"
  type: "ReLU"
  bottom: "res4f_branch2b"
  top: "res4f_branch2b"
}
layer {
  name: "res4f_branch2c"
  type: "Convolution"
  bottom: "res4f_branch2b"
  top: "res4f_branch2c"
  convolution_param {
    num_output: 1024
    bias_term: false
    pad: 0
    kernel_size: 1
    stride: 1
  }
}
layer {
  name: "bn4f_branch2c"
  type: "BatchNorm"
  bottom: "res4f_branch2c"
  top: "res4f_branch2c"
  batch_norm_param {
    use_global_stats: true
  }
}
layer {
  name: "scale4f_branch2c"
  type: "Scale"
  bottom: "res4f_branch2c"
  top: "res4f_branch2c"
  scale_param {
    bias_term: true
  }
}
layer {
  name: "res4f"
  type: "Eltwise"
  bottom: "res4e"
  bottom: "res4f_branch2c"
  top: "res4f"
}
layer {
  name: "res4f_relu"
  type: "ReLU"
  bottom: "res4f"
  top: "res4f"
}
layer {
  name: "rpn_conv/3x3"
  type: "Convolution"
  bottom: "res4f"
  top: "rpn/output"
  param {
    lr_mult: 1
  }
  param {
    lr_mult: 2
  }
  convolution_param {
    num_output: 512
    pad: 1
    kernel_size: 3
    stride: 1
    weight_filler {
      type: "gaussian"
      std: 0.01
    }
    bias_filler {
      type: "constant"
      value: 0
    }
  }
}
layer {
  name: "rpn_relu/3x3"
  type: "ReLU"
  bottom: "rpn/output"
  top: "rpn/output"
}
layer {
  name: "rpn_cls_score"
  type: "Convolution"
  bottom: "rpn/output"
  top: "rpn_cls_score"
  param {
    lr_mult: 1
  }
  param {
    lr_mult: 2
  }
  convolution_param {
    num_output: 30
    pad: 0
    kernel_size: 1
    stride: 1
    weight_filler {
      type: "gaussian"
      std: 0.01
    }
    bias_filler {
      type: "constant"
      value: 0
    }
  }
}
layer {
  name: "rpn_bbox_pred"
  type: "Convolution"
  bottom: "rpn/output"
  top: "rpn_bbox_pred"
  param {
    lr_mult: 1
  }
  param {
    lr_mult: 2
  }
  convolution_param {
    num_output: 60
    pad: 0
    kernel_size: 1
    stride: 1
    weight_filler {
      type: "gaussian"
      std: 0.01
    }
    bias_filler {
      type: "constant"
      value: 0
    }
  }
}
layer {
  name: "rpn_cls_score_reshape"
  type: "Reshape"
  bottom: "rpn_cls_score"
  top: "rpn_cls_score_reshape"
  reshape_param {
    shape {
      dim: 0
      dim: 2
      dim: -1
      dim: 0
    }
  }
}
layer {
  name: "rpn-data"
  type: "Python"
  bottom: "rpn_cls_score"
  bottom: "gt_boxes"
  bottom: "im_info"
  bottom: "data"
  top: "rpn_labels"
  top: "rpn_bbox_targets"
  top: "rpn_bbox_inside_weights"
  top: "rpn_bbox_outside_weights"
  python_param {
    module: "rpn.anchor_target_layer"
    layer: "AnchorTargetLayer"
    param_str: "\'feat_stride\': 16"
  }
}
layer {
  name: "rpn_loss_cls"
  type: "SoftmaxWithLoss"
  bottom: "rpn_cls_score_reshape"
  bottom: "rpn_labels"
  top: "rpn_cls_loss"
  loss_weight: 1
  propagate_down: true
  propagate_down: false
  loss_param {
    ignore_label: -1
    normalize: true
  }
}
layer {
  name: "rpn_loss_bbox"
  type: "SmoothL1Loss"
  bottom: "rpn_bbox_pred"
  bottom: "rpn_bbox_targets"
  bottom: "rpn_bbox_
I0705 13:48:58.542793  8758 layer_factory.hpp:77] Creating layer input-data
I0705 13:48:58.582056  8758 net.cpp:106] Creating Layer input-data
I0705 13:48:58.582072  8758 net.cpp:411] input-data -> data
I0705 13:48:58.582093  8758 net.cpp:411] input-data -> im_info
I0705 13:48:58.582098  8758 net.cpp:411] input-data -> gt_boxes
RoiDataLayer: name_to_top: {'gt_boxes': 2, 'data': 0, 'im_info': 1}
I0705 13:49:19.637055  8758 net.cpp:150] Setting up input-data
I0705 13:49:19.637087  8758 net.cpp:157] Top shape: 1 3 600 1000 (1800000)
I0705 13:49:19.637091  8758 net.cpp:157] Top shape: 1 3 (3)
I0705 13:49:19.637094  8758 net.cpp:157] Top shape: 1 4 (4)
I0705 13:49:19.637097  8758 net.cpp:165] Memory required for data: 7200028
I0705 13:49:19.637104  8758 layer_factory.hpp:77] Creating layer data_input-data_0_split
I0705 13:49:19.637146  8758 net.cpp:106] Creating Layer data_input-data_0_split
I0705 13:49:19.637152  8758 net.cpp:454] data_input-data_0_split <- data
I0705 13:49:19.637159  8758 net.cpp:411] data_input-data_0_split -> data_input-data_0_split_0
I0705 13:49:19.637169  8758 net.cpp:411] data_input-data_0_split -> data_input-data_0_split_1
I0705 13:49:19.637204  8758 net.cpp:150] Setting up data_input-data_0_split
I0705 13:49:19.637212  8758 net.cpp:157] Top shape: 1 3 600 1000 (1800000)
I0705 13:49:19.637217  8758 net.cpp:157] Top shape: 1 3 600 1000 (1800000)
I0705 13:49:19.637218  8758 net.cpp:165] Memory required for data: 21600028
I0705 13:49:19.637223  8758 layer_factory.hpp:77] Creating layer im_info_input-data_1_split
I0705 13:49:19.637228  8758 net.cpp:106] Creating Layer im_info_input-data_1_split
I0705 13:49:19.637230  8758 net.cpp:454] im_info_input-data_1_split <- im_info
I0705 13:49:19.637235  8758 net.cpp:411] im_info_input-data_1_split -> im_info_input-data_1_split_0
I0705 13:49:19.637240  8758 net.cpp:411] im_info_input-data_1_split -> im_info_input-data_1_split_1
I0705 13:49:19.637267  8758 net.cpp:150] Setting up im_info_input-data_1_split
I0705 13:49:19.637274  8758 net.cpp:157] Top shape: 1 3 (3)
I0705 13:49:19.637276  8758 net.cpp:157] Top shape: 1 3 (3)
I0705 13:49:19.637279  8758 net.cpp:165] Memory required for data: 21600052
I0705 13:49:19.637282  8758 layer_factory.hpp:77] Creating layer gt_boxes_input-data_2_split
I0705 13:49:19.637287  8758 net.cpp:106] Creating Layer gt_boxes_input-data_2_split
I0705 13:49:19.637290  8758 net.cpp:454] gt_boxes_input-data_2_split <- gt_boxes
I0705 13:49:19.637295  8758 net.cpp:411] gt_boxes_input-data_2_split -> gt_boxes_input-data_2_split_0
I0705 13:49:19.637300  8758 net.cpp:411] gt_boxes_input-data_2_split -> gt_boxes_input-data_2_split_1
I0705 13:49:19.637326  8758 net.cpp:150] Setting up gt_boxes_input-data_2_split
I0705 13:49:19.637332  8758 net.cpp:157] Top shape: 1 4 (4)
I0705 13:49:19.637336  8758 net.cpp:157] Top shape: 1 4 (4)
I0705 13:49:19.637338  8758 net.cpp:165] Memory required for data: 21600084
I0705 13:49:19.637341  8758 layer_factory.hpp:77] Creating layer conv1
I0705 13:49:19.637352  8758 net.cpp:106] Creating Layer conv1
I0705 13:49:19.637356  8758 net.cpp:454] conv1 <- data_input-data_0_split_0
I0705 13:49:19.637361  8758 net.cpp:411] conv1 -> conv1
I0705 13:49:19.844955  8758 net.cpp:150] Setting up conv1
I0705 13:49:19.844980  8758 net.cpp:157] Top shape: 1 64 300 500 (9600000)
I0705 13:49:19.844983  8758 net.cpp:165] Memory required for data: 60000084
I0705 13:49:19.844996  8758 layer_factory.hpp:77] Creating layer bn_conv1
I0705 13:49:19.845006  8758 net.cpp:106] Creating Layer bn_conv1
I0705 13:49:19.845010  8758 net.cpp:454] bn_conv1 <- conv1
I0705 13:49:19.845017  8758 net.cpp:397] bn_conv1 -> conv1 (in-place)
I0705 13:49:19.845314  8758 net.cpp:150] Setting up bn_conv1
I0705 13:49:19.845324  8758 net.cpp:157] Top shape: 1 64 300 500 (9600000)
I0705 13:49:19.845326  8758 net.cpp:165] Memory required for data: 98400084
I0705 13:49:19.845337  8758 layer_factory.hpp:77] Creating layer scale_conv1
I0705 13:49:19.845345  8758 net.cpp:106] Creating Layer scale_conv1
I0705 13:49:19.845347  8758 net.cpp:454] scale_conv1 <- conv1
I0705 13:49:19.845351  8758 net.cpp:397] scale_conv1 -> conv1 (in-place)
I0705 13:49:19.845388  8758 layer_factory.hpp:77] Creating layer scale_conv1
I0705 13:49:19.846506  8758 net.cpp:150] Setting up scale_conv1
I0705 13:49:19.846520  8758 net.cpp:157] Top shape: 1 64 300 500 (9600000)
I0705 13:49:19.846534  8758 net.cpp:165] Memory required for data: 136800084
I0705 13:49:19.846541  8758 layer_factory.hpp:77] Creating layer conv1_relu
I0705 13:49:19.846549  8758 net.cpp:106] Creating Layer conv1_relu
I0705 13:49:19.846552  8758 net.cpp:454] conv1_relu <- conv1
I0705 13:49:19.846556  8758 net.cpp:397] conv1_relu -> conv1 (in-place)
I0705 13:49:19.846768  8758 net.cpp:150] Setting up conv1_relu
I0705 13:49:19.846779  8758 net.cpp:157] Top shape: 1 64 300 500 (9600000)
I0705 13:49:19.846782  8758 net.cpp:165] Memory required for data: 175200084
I0705 13:49:19.846786  8758 layer_factory.hpp:77] Creating layer pool1
I0705 13:49:19.846793  8758 net.cpp:106] Creating Layer pool1
I0705 13:49:19.846797  8758 net.cpp:454] pool1 <- conv1
I0705 13:49:19.846801  8758 net.cpp:411] pool1 -> pool1
I0705 13:49:19.846845  8758 net.cpp:150] Setting up pool1
I0705 13:49:19.846853  8758 net.cpp:157] Top shape: 1 64 150 250 (2400000)
I0705 13:49:19.846855  8758 net.cpp:165] Memory required for data: 184800084
I0705 13:49:19.846858  8758 layer_factory.hpp:77] Creating layer pool1_pool1_0_split
I0705 13:49:19.846863  8758 net.cpp:106] Creating Layer pool1_pool1_0_split
I0705 13:49:19.846866  8758 net.cpp:454] pool1_pool1_0_split <- pool1
I0705 13:49:19.846870  8758 net.cpp:411] pool1_pool1_0_split -> pool1_pool1_0_split_0
I0705 13:49:19.846876  8758 net.cpp:411] pool1_pool1_0_split -> pool1_pool1_0_split_1
I0705 13:49:19.846905  8758 net.cpp:150] Setting up pool1_pool1_0_split
I0705 13:49:19.846911  8758 net.cpp:157] Top shape: 1 64 150 250 (2400000)
I0705 13:49:19.846915  8758 net.cpp:157] Top shape: 1 64 150 250 (2400000)
I0705 13:49:19.846917  8758 net.cpp:165] Memory required for data: 204000084
I0705 13:49:19.846920  8758 layer_factory.hpp:77] Creating layer res2a_branch1
I0705 13:49:19.846928  8758 net.cpp:106] Creating Layer res2a_branch1
I0705 13:49:19.846931  8758 net.cpp:454] res2a_branch1 <- pool1_pool1_0_split_0
I0705 13:49:19.846936  8758 net.cpp:411] res2a_branch1 -> res2a_branch1
I0705 13:49:19.847880  8758 net.cpp:150] Setting up res2a_branch1
I0705 13:49:19.847893  8758 net.cpp:157] Top shape: 1 256 150 250 (9600000)
I0705 13:49:19.847908  8758 net.cpp:165] Memory required for data: 242400084
I0705 13:49:19.847913  8758 layer_factory.hpp:77] Creating layer bn2a_branch1
I0705 13:49:19.847919  8758 net.cpp:106] Creating Layer bn2a_branch1
I0705 13:49:19.847923  8758 net.cpp:454] bn2a_branch1 <- res2a_branch1
I0705 13:49:19.847928  8758 net.cpp:397] bn2a_branch1 -> res2a_branch1 (in-place)
I0705 13:49:19.849054  8758 net.cpp:150] Setting up bn2a_branch1
I0705 13:49:19.849068  8758 net.cpp:157] Top shape: 1 256 150 250 (9600000)
I0705 13:49:19.849082  8758 net.cpp:165] Memory required for data: 280800084
I0705 13:49:19.849093  8758 layer_factory.hpp:77] Creating layer scale2a_branch1
I0705 13:49:19.849100  8758 net.cpp:106] Creating Layer scale2a_branch1
I0705 13:49:19.849104  8758 net.cpp:454] scale2a_branch1 <- res2a_branch1
I0705 13:49:19.849108  8758 net.cpp:397] scale2a_branch1 -> res2a_branch1 (in-place)
I0705 13:49:19.849146  8758 layer_factory.hpp:77] Creating layer scale2a_branch1
I0705 13:49:19.849285  8758 net.cpp:150] Setting up scale2a_branch1
I0705 13:49:19.849293  8758 net.cpp:157] Top shape: 1 256 150 250 (9600000)
I0705 13:49:19.849297  8758 net.cpp:165] Memory required for data: 319200084
I0705 13:49:19.849303  8758 layer_factory.hpp:77] Creating layer res2a_branch2a
I0705 13:49:19.849309  8758 net.cpp:106] Creating Layer res2a_branch2a
I0705 13:49:19.849313  8758 net.cpp:454] res2a_branch2a <- pool1_pool1_0_split_1
I0705 13:49:19.849318  8758 net.cpp:411] res2a_branch2a -> res2a_branch2a
I0705 13:49:19.851322  8758 net.cpp:150] Setting up res2a_branch2a
I0705 13:49:19.851347  8758 net.cpp:157] Top shape: 1 64 150 250 (2400000)
I0705 13:49:19.851351  8758 net.cpp:165] Memory required for data: 328800084
I0705 13:49:19.851356  8758 layer_factory.hpp:77] Creating layer bn2a_branch2a
I0705 13:49:19.851363  8758 net.cpp:106] Creating Layer bn2a_branch2a
I0705 13:49:19.851367  8758 net.cpp:454] bn2a_branch2a <- res2a_branch2a
I0705 13:49:19.851372  8758 net.cpp:397] bn2a_branch2a -> res2a_branch2a (in-place)
I0705 13:49:19.851590  8758 net.cpp:150] Setting up bn2a_branch2a
I0705 13:49:19.851599  8758 net.cpp:157] Top shape: 1 64 150 250 (2400000)
I0705 13:49:19.851601  8758 net.cpp:165] Memory required for data: 338400084
I0705 13:49:19.851613  8758 layer_factory.hpp:77] Creating layer scale2a_branch2a
I0705 13:49:19.851619  8758 net.cpp:106] Creating Layer scale2a_branch2a
I0705 13:49:19.851622  8758 net.cpp:454] scale2a_branch2a <- res2a_branch2a
I0705 13:49:19.851626  8758 net.cpp:397] scale2a_branch2a -> res2a_branch2a (in-place)
I0705 13:49:19.851666  8758 layer_factory.hpp:77] Creating layer scale2a_branch2a
I0705 13:49:19.851821  8758 net.cpp:150] Setting up scale2a_branch2a
I0705 13:49:19.851831  8758 net.cpp:157] Top shape: 1 64 150 250 (2400000)
I0705 13:49:19.851833  8758 net.cpp:165] Memory required for data: 348000084
I0705 13:49:19.851840  8758 layer_factory.hpp:77] Creating layer res2a_branch2a_relu
I0705 13:49:19.851847  8758 net.cpp:106] Creating Layer res2a_branch2a_relu
I0705 13:49:19.851851  8758 net.cpp:454] res2a_branch2a_relu <- res2a_branch2a
I0705 13:49:19.851855  8758 net.cpp:397] res2a_branch2a_relu -> res2a_branch2a (in-place)
I0705 13:49:19.852031  8758 net.cpp:150] Setting up res2a_branch2a_relu
I0705 13:49:19.852042  8758 net.cpp:157] Top shape: 1 64 150 250 (2400000)
I0705 13:49:19.852044  8758 net.cpp:165] Memory required for data: 357600084
I0705 13:49:19.852048  8758 layer_factory.hpp:77] Creating layer res2a_branch2b
I0705 13:49:19.852056  8758 net.cpp:106] Creating Layer res2a_branch2b
I0705 13:49:19.852059  8758 net.cpp:454] res2a_branch2b <- res2a_branch2a
I0705 13:49:19.852064  8758 net.cpp:411] res2a_branch2b -> res2a_branch2b
I0705 13:49:19.853719  8758 net.cpp:150] Setting up res2a_branch2b
I0705 13:49:19.853734  8758 net.cpp:157] Top shape: 1 64 150 250 (2400000)
I0705 13:49:19.853739  8758 net.cpp:165] Memory required for data: 367200084
I0705 13:49:19.853744  8758 layer_factory.hpp:77] Creating layer bn2a_branch2b
I0705 13:49:19.853749  8758 net.cpp:106] Creating Layer bn2a_branch2b
I0705 13:49:19.853754  8758 net.cpp:454] bn2a_branch2b <- res2a_branch2b
I0705 13:49:19.853757  8758 net.cpp:397] bn2a_branch2b -> res2a_branch2b (in-place)
I0705 13:49:19.853967  8758 net.cpp:150] Setting up bn2a_branch2b
I0705 13:49:19.853976  8758 net.cpp:157] Top shape: 1 64 150 250 (2400000)
I0705 13:49:19.853978  8758 net.cpp:165] Memory required for data: 376800084
I0705 13:49:19.853986  8758 layer_factory.hpp:77] Creating layer scale2a_branch2b
I0705 13:49:19.853991  8758 net.cpp:106] Creating Layer scale2a_branch2b
I0705 13:49:19.853993  8758 net.cpp:454] scale2a_branch2b <- res2a_branch2b
I0705 13:49:19.853998  8758 net.cpp:397] scale2a_branch2b -> res2a_branch2b (in-place)
I0705 13:49:19.854037  8758 layer_factory.hpp:77] Creating layer scale2a_branch2b
I0705 13:49:19.854192  8758 net.cpp:150] Setting up scale2a_branch2b
I0705 13:49:19.854200  8758 net.cpp:157] Top shape: 1 64 150 250 (2400000)
I0705 13:49:19.854202  8758 net.cpp:165] Memory required for data: 386400084
I0705 13:49:19.854208  8758 layer_factory.hpp:77] Creating layer res2a_branch2b_relu
I0705 13:49:19.854213  8758 net.cpp:106] Creating Layer res2a_branch2b_relu
I0705 13:49:19.854216  8758 net.cpp:454] res2a_branch2b_relu <- res2a_branch2b
I0705 13:49:19.854223  8758 net.cpp:397] res2a_branch2b_relu -> res2a_branch2b (in-place)
I0705 13:49:19.854420  8758 net.cpp:150] Setting up res2a_branch2b_relu
I0705 13:49:19.854431  8758 net.cpp:157] Top shape: 1 64 150 250 (2400000)
I0705 13:49:19.854434  8758 net.cpp:165] Memory required for data: 396000084
I0705 13:49:19.854439  8758 layer_factory.hpp:77] Creating layer res2a_branch2c
I0705 13:49:19.854446  8758 net.cpp:106] Creating Layer res2a_branch2c
I0705 13:49:19.854450  8758 net.cpp:454] res2a_branch2c <- res2a_branch2b
I0705 13:49:19.854455  8758 net.cpp:411] res2a_branch2c -> res2a_branch2c
I0705 13:49:19.855511  8758 net.cpp:150] Setting up res2a_branch2c
I0705 13:49:19.855525  8758 net.cpp:157] Top shape: 1 256 150 250 (9600000)
I0705 13:49:19.855540  8758 net.cpp:165] Memory required for data: 434400084
I0705 13:49:19.855545  8758 layer_factory.hpp:77] Creating layer bn2a_branch2c
I0705 13:49:19.855563  8758 net.cpp:106] Creating Layer bn2a_branch2c
I0705 13:49:19.855567  8758 net.cpp:454] bn2a_branch2c <- res2a_branch2c
I0705 13:49:19.855573  8758 net.cpp:397] bn2a_branch2c -> res2a_branch2c (in-place)
I0705 13:49:19.855767  8758 net.cpp:150] Setting up bn2a_branch2c
I0705 13:49:19.855775  8758 net.cpp:157] Top shape: 1 256 150 250 (9600000)
I0705 13:49:19.855778  8758 net.cpp:165] Memory required for data: 472800084
I0705 13:49:19.855785  8758 layer_factory.hpp:77] Creating layer scale2a_branch2c
I0705 13:49:19.855792  8758 net.cpp:106] Creating Layer scale2a_branch2c
I0705 13:49:19.855796  8758 net.cpp:454] scale2a_branch2c <- res2a_branch2c
I0705 13:49:19.855800  8758 net.cpp:397] scale2a_branch2c -> res2a_branch2c (in-place)
I0705 13:49:19.855836  8758 layer_factory.hpp:77] Creating layer scale2a_branch2c
I0705 13:49:19.855984  8758 net.cpp:150] Setting up scale2a_branch2c
I0705 13:49:19.855993  8758 net.cpp:157] Top shape: 1 256 150 250 (9600000)
I0705 13:49:19.855995  8758 net.cpp:165] Memory required for data: 511200084
I0705 13:49:19.856000  8758 layer_factory.hpp:77] Creating layer res2a
I0705 13:49:19.856007  8758 net.cpp:106] Creating Layer res2a
I0705 13:49:19.856010  8758 net.cpp:454] res2a <- res2a_branch1
I0705 13:49:19.856014  8758 net.cpp:454] res2a <- res2a_branch2c
I0705 13:49:19.856019  8758 net.cpp:411] res2a -> res2a
I0705 13:49:19.856051  8758 net.cpp:150] Setting up res2a
I0705 13:49:19.856058  8758 net.cpp:157] Top shape: 1 256 150 250 (9600000)
I0705 13:49:19.856060  8758 net.cpp:165] Memory required for data: 549600084
I0705 13:49:19.856063  8758 layer_factory.hpp:77] Creating layer res2a_relu
I0705 13:49:19.856068  8758 net.cpp:106] Creating Layer res2a_relu
I0705 13:49:19.856071  8758 net.cpp:454] res2a_relu <- res2a
I0705 13:49:19.856077  8758 net.cpp:397] res2a_relu -> res2a (in-place)
I0705 13:49:19.856256  8758 net.cpp:150] Setting up res2a_relu
I0705 13:49:19.856266  8758 net.cpp:157] Top shape: 1 256 150 250 (9600000)
I0705 13:49:19.856269  8758 net.cpp:165] Memory required for data: 588000084
I0705 13:49:19.856272  8758 layer_factory.hpp:77] Creating layer res2a_res2a_relu_0_split
I0705 13:49:19.856278  8758 net.cpp:106] Creating Layer res2a_res2a_relu_0_split
I0705 13:49:19.856281  8758 net.cpp:454] res2a_res2a_relu_0_split <- res2a
I0705 13:49:19.856287  8758 net.cpp:411] res2a_res2a_relu_0_split -> res2a_res2a_relu_0_split_0
I0705 13:49:19.856293  8758 net.cpp:411] res2a_res2a_relu_0_split -> res2a_res2a_relu_0_split_1
I0705 13:49:19.856333  8758 net.cpp:150] Setting up res2a_res2a_relu_0_split
I0705 13:49:19.856339  8758 net.cpp:157] Top shape: 1 256 150 250 (9600000)
I0705 13:49:19.856343  8758 net.cpp:157] Top shape: 1 256 150 250 (9600000)
I0705 13:49:19.856345  8758 net.cpp:165] Memory required for data: 664800084
I0705 13:49:19.856348  8758 layer_factory.hpp:77] Creating layer res2b_branch2a
I0705 13:49:19.856356  8758 net.cpp:106] Creating Layer res2b_branch2a
I0705 13:49:19.856359  8758 net.cpp:454] res2b_branch2a <- res2a_res2a_relu_0_split_0
I0705 13:49:19.856364  8758 net.cpp:411] res2b_branch2a -> res2b_branch2a
I0705 13:49:19.857733  8758 net.cpp:150] Setting up res2b_branch2a
I0705 13:49:19.857746  8758 net.cpp:157] Top shape: 1 64 150 250 (2400000)
I0705 13:49:19.857749  8758 net.cpp:165] Memory required for data: 674400084
I0705 13:49:19.857755  8758 layer_factory.hpp:77] Creating layer bn2b_branch2a
I0705 13:49:19.857762  8758 net.cpp:106] Creating Layer bn2b_branch2a
I0705 13:49:19.857766  8758 net.cpp:454] bn2b_branch2a <- res2b_branch2a
I0705 13:49:19.857771  8758 net.cpp:397] bn2b_branch2a -> res2b_branch2a (in-place)
I0705 13:49:19.858896  8758 net.cpp:150] Setting up bn2b_branch2a
I0705 13:49:19.858909  8758 net.cpp:157] Top shape: 1 64 150 250 (2400000)
I0705 13:49:19.858923  8758 net.cpp:165] Memory required for data: 684000084
I0705 13:49:19.858935  8758 layer_factory.hpp:77] Creating layer scale2b_branch2a
I0705 13:49:19.858943  8758 net.cpp:106] Creating Layer scale2b_branch2a
I0705 13:49:19.858947  8758 net.cpp:454] scale2b_branch2a <- res2b_branch2a
I0705 13:49:19.858952  8758 net.cpp:397] scale2b_branch2a -> res2b_branch2a (in-place)
I0705 13:49:19.859005  8758 layer_factory.hpp:77] Creating layer scale2b_branch2a
I0705 13:49:19.859163  8758 net.cpp:150] Setting up scale2b_branch2a
I0705 13:49:19.859171  8758 net.cpp:157] Top shape: 1 64 150 250 (2400000)
I0705 13:49:19.859174  8758 net.cpp:165] Memory required for data: 693600084
I0705 13:49:19.859179  8758 layer_factory.hpp:77] Creating layer res2b_branch2a_relu
I0705 13:49:19.859185  8758 net.cpp:106] Creating Layer res2b_branch2a_relu
I0705 13:49:19.859189  8758 net.cpp:454] res2b_branch2a_relu <- res2b_branch2a
I0705 13:49:19.859194  8758 net.cpp:397] res2b_branch2a_relu -> res2b_branch2a (in-place)
I0705 13:49:19.859380  8758 net.cpp:150] Setting up res2b_branch2a_relu
I0705 13:49:19.859390  8758 net.cpp:157] Top shape: 1 64 150 250 (2400000)
I0705 13:49:19.859393  8758 net.cpp:165] Memory required for data: 703200084
I0705 13:49:19.859396  8758 layer_factory.hpp:77] Creating layer res2b_branch2b
I0705 13:49:19.859405  8758 net.cpp:106] Creating Layer res2b_branch2b
I0705 13:49:19.859410  8758 net.cpp:454] res2b_branch2b <- res2b_branch2a
I0705 13:49:19.859416  8758 net.cpp:411] res2b_branch2b -> res2b_branch2b
I0705 13:49:19.860471  8758 net.cpp:150] Setting up res2b_branch2b
I0705 13:49:19.860484  8758 net.cpp:157] Top shape: 1 64 150 250 (2400000)
I0705 13:49:19.860499  8758 net.cpp:165] Memory required for data: 712800084
I0705 13:49:19.860504  8758 layer_factory.hpp:77] Creating layer bn2b_branch2b
I0705 13:49:19.860517  8758 net.cpp:106] Creating Layer bn2b_branch2b
I0705 13:49:19.860520  8758 net.cpp:454] bn2b_branch2b <- res2b_branch2b
I0705 13:49:19.860525  8758 net.cpp:397] bn2b_branch2b -> res2b_branch2b (in-place)
I0705 13:49:19.860749  8758 net.cpp:150] Setting up bn2b_branch2b
I0705 13:49:19.860759  8758 net.cpp:157] Top shape: 1 64 150 250 (2400000)
I0705 13:49:19.860761  8758 net.cpp:165] Memory required for data: 722400084
I0705 13:49:19.860769  8758 layer_factory.hpp:77] Creating layer scale2b_branch2b
I0705 13:49:19.860774  8758 net.cpp:106] Creating Layer scale2b_branch2b
I0705 13:49:19.860776  8758 net.cpp:454] scale2b_branch2b <- res2b_branch2b
I0705 13:49:19.860781  8758 net.cpp:397] scale2b_branch2b -> res2b_branch2b (in-place)
I0705 13:49:19.860819  8758 layer_factory.hpp:77] Creating layer scale2b_branch2b
I0705 13:49:19.860975  8758 net.cpp:150] Setting up scale2b_branch2b
I0705 13:49:19.860983  8758 net.cpp:157] Top shape: 1 64 150 250 (2400000)
I0705 13:49:19.860985  8758 net.cpp:165] Memory required for data: 732000084
I0705 13:49:19.860991  8758 layer_factory.hpp:77] Creating layer res2b_branch2b_relu
I0705 13:49:19.860996  8758 net.cpp:106] Creating Layer res2b_branch2b_relu
I0705 13:49:19.861001  8758 net.cpp:454] res2b_branch2b_relu <- res2b_branch2b
I0705 13:49:19.861006  8758 net.cpp:397] res2b_branch2b_relu -> res2b_branch2b (in-place)
I0705 13:49:19.861526  8758 net.cpp:150] Setting up res2b_branch2b_relu
I0705 13:49:19.861538  8758 net.cpp:157] Top shape: 1 64 150 250 (2400000)
I0705 13:49:19.861552  8758 net.cpp:165] Memory required for data: 741600084
I0705 13:49:19.861555  8758 layer_factory.hpp:77] Creating layer res2b_branch2c
I0705 13:49:19.861564  8758 net.cpp:106] Creating Layer res2b_branch2c
I0705 13:49:19.861568  8758 net.cpp:454] res2b_branch2c <- res2b_branch2b
I0705 13:49:19.861574  8758 net.cpp:411] res2b_branch2c -> res2b_branch2c
I0705 13:49:19.862989  8758 net.cpp:150] Setting up res2b_branch2c
I0705 13:49:19.863014  8758 net.cpp:157] Top shape: 1 256 150 250 (9600000)
I0705 13:49:19.863018  8758 net.cpp:165] Memory required for data: 780000084
I0705 13:49:19.863023  8758 layer_factory.hpp:77] Creating layer bn2b_branch2c
I0705 13:49:19.863031  8758 net.cpp:106] Creating Layer bn2b_branch2c
I0705 13:49:19.863035  8758 net.cpp:454] bn2b_branch2c <- res2b_branch2c
I0705 13:49:19.863039  8758 net.cpp:397] bn2b_branch2c -> res2b_branch2c (in-place)
I0705 13:49:19.863250  8758 net.cpp:150] Setting up bn2b_branch2c
I0705 13:49:19.863258  8758 net.cpp:157] Top shape: 1 256 150 250 (9600000)
I0705 13:49:19.863260  8758 net.cpp:165] Memory required for data: 818400084
I0705 13:49:19.863267  8758 layer_factory.hpp:77] Creating layer scale2b_branch2c
I0705 13:49:19.863272  8758 net.cpp:106] Creating Layer scale2b_branch2c
I0705 13:49:19.863276  8758 net.cpp:454] scale2b_branch2c <- res2b_branch2c
I0705 13:49:19.863281  8758 net.cpp:397] scale2b_branch2c -> res2b_branch2c (in-place)
I0705 13:49:19.863318  8758 layer_factory.hpp:77] Creating layer scale2b_branch2c
I0705 13:49:19.863468  8758 net.cpp:150] Setting up scale2b_branch2c
I0705 13:49:19.863476  8758 net.cpp:157] Top shape: 1 256 150 250 (9600000)
I0705 13:49:19.863479  8758 net.cpp:165] Memory required for data: 856800084
I0705 13:49:19.863484  8758 layer_factory.hpp:77] Creating layer res2b
I0705 13:49:19.863492  8758 net.cpp:106] Creating Layer res2b
I0705 13:49:19.863494  8758 net.cpp:454] res2b <- res2a_res2a_relu_0_split_1
I0705 13:49:19.863498  8758 net.cpp:454] res2b <- res2b_branch2c
I0705 13:49:19.863502  8758 net.cpp:411] res2b -> res2b
I0705 13:49:19.863529  8758 net.cpp:150] Setting up res2b
I0705 13:49:19.863535  8758 net.cpp:157] Top shape: 1 256 150 250 (9600000)
I0705 13:49:19.863538  8758 net.cpp:165] Memory required for data: 895200084
I0705 13:49:19.863541  8758 layer_factory.hpp:77] Creating layer res2b_relu
I0705 13:49:19.863545  8758 net.cpp:106] Creating Layer res2b_relu
I0705 13:49:19.863548  8758 net.cpp:454] res2b_relu <- res2b
I0705 13:49:19.863554  8758 net.cpp:397] res2b_relu -> res2b (in-place)
I0705 13:49:19.863739  8758 net.cpp:150] Setting up res2b_relu
I0705 13:49:19.863749  8758 net.cpp:157] Top shape: 1 256 150 250 (9600000)
I0705 13:49:19.863751  8758 net.cpp:165] Memory required for data: 933600084
I0705 13:49:19.863754  8758 layer_factory.hpp:77] Creating layer res2b_res2b_relu_0_split
I0705 13:49:19.863759  8758 net.cpp:106] Creating Layer res2b_res2b_relu_0_split
I0705 13:49:19.863764  8758 net.cpp:454] res2b_res2b_relu_0_split <- res2b
I0705 13:49:19.863770  8758 net.cpp:411] res2b_res2b_relu_0_split -> res2b_res2b_relu_0_split_0
I0705 13:49:19.863775  8758 net.cpp:411] res2b_res2b_relu_0_split -> res2b_res2b_relu_0_split_1
I0705 13:49:19.863814  8758 net.cpp:150] Setting up res2b_res2b_relu_0_split
I0705 13:49:19.863821  8758 net.cpp:157] Top shape: 1 256 150 250 (9600000)
I0705 13:49:19.863824  8758 net.cpp:157] Top shape: 1 256 150 250 (9600000)
I0705 13:49:19.863827  8758 net.cpp:165] Memory required for data: 1010400084
I0705 13:49:19.863829  8758 layer_factory.hpp:77] Creating layer res2c_branch2a
I0705 13:49:19.863839  8758 net.cpp:106] Creating Layer res2c_branch2a
I0705 13:49:19.863843  8758 net.cpp:454] res2c_branch2a <- res2b_res2b_relu_0_split_0
I0705 13:49:19.863848  8758 net.cpp:411] res2c_branch2a -> res2c_branch2a
I0705 13:49:19.864910  8758 net.cpp:150] Setting up res2c_branch2a
I0705 13:49:19.864923  8758 net.cpp:157] Top shape: 1 64 150 250 (2400000)
I0705 13:49:19.864938  8758 net.cpp:165] Memory required for data: 1020000084
I0705 13:49:19.864944  8758 layer_factory.hpp:77] Creating layer bn2c_branch2a
I0705 13:49:19.864949  8758 net.cpp:106] Creating Layer bn2c_branch2a
I0705 13:49:19.864953  8758 net.cpp:454] bn2c_branch2a <- res2c_branch2a
I0705 13:49:19.864959  8758 net.cpp:397] bn2c_branch2a -> res2c_branch2a (in-place)
I0705 13:49:19.865183  8758 net.cpp:150] Setting up bn2c_branch2a
I0705 13:49:19.865192  8758 net.cpp:157] Top shape: 1 64 150 250 (2400000)
I0705 13:49:19.865195  8758 net.cpp:165] Memory required for data: 1029600084
I0705 13:49:19.865201  8758 layer_factory.hpp:77] Creating layer scale2c_branch2a
I0705 13:49:19.865208  8758 net.cpp:106] Creating Layer scale2c_branch2a
I0705 13:49:19.865211  8758 net.cpp:454] scale2c_branch2a <- res2c_branch2a
I0705 13:49:19.865216  8758 net.cpp:397] scale2c_branch2a -> res2c_branch2a (in-place)
I0705 13:49:19.865253  8758 layer_factory.hpp:77] Creating layer scale2c_branch2a
I0705 13:49:19.865412  8758 net.cpp:150] Setting up scale2c_branch2a
I0705 13:49:19.865420  8758 net.cpp:157] Top shape: 1 64 150 250 (2400000)
I0705 13:49:19.865423  8758 net.cpp:165] Memory required for data: 1039200084
I0705 13:49:19.865429  8758 layer_factory.hpp:77] Creating layer res2c_branch2a_relu
I0705 13:49:19.865434  8758 net.cpp:106] Creating Layer res2c_branch2a_relu
I0705 13:49:19.865437  8758 net.cpp:454] res2c_branch2a_relu <- res2c_branch2a
I0705 13:49:19.865443  8758 net.cpp:397] res2c_branch2a_relu -> res2c_branch2a (in-place)
I0705 13:49:19.865623  8758 net.cpp:150] Setting up res2c_branch2a_relu
I0705 13:49:19.865634  8758 net.cpp:157] Top shape: 1 64 150 250 (2400000)
I0705 13:49:19.865636  8758 net.cpp:165] Memory required for data: 1048800084
I0705 13:49:19.865640  8758 layer_factory.hpp:77] Creating layer res2c_branch2b
I0705 13:49:19.865648  8758 net.cpp:106] Creating Layer res2c_branch2b
I0705 13:49:19.865653  8758 net.cpp:454] res2c_branch2b <- res2c_branch2a
I0705 13:49:19.865658  8758 net.cpp:411] res2c_branch2b -> res2c_branch2b
I0705 13:49:19.867107  8758 net.cpp:150] Setting up res2c_branch2b
I0705 13:49:19.867120  8758 net.cpp:157] Top shape: 1 64 150 250 (2400000)
I0705 13:49:19.867123  8758 net.cpp:165] Memory required for data: 1058400084
I0705 13:49:19.867141  8758 layer_factory.hpp:77] Creating layer bn2c_branch2b
I0705 13:49:19.867147  8758 net.cpp:106] Creating Layer bn2c_branch2b
I0705 13:49:19.867151  8758 net.cpp:454] bn2c_branch2b <- res2c_branch2b
I0705 13:49:19.867156  8758 net.cpp:397] bn2c_branch2b -> res2c_branch2b (in-place)
I0705 13:49:19.868356  8758 net.cpp:150] Setting up bn2c_branch2b
I0705 13:49:19.868371  8758 net.cpp:157] Top shape: 1 64 150 250 (2400000)
I0705 13:49:19.868373  8758 net.cpp:165] Memory required for data: 1068000084
I0705 13:49:19.868381  8758 layer_factory.hpp:77] Creating layer scale2c_branch2b
I0705 13:49:19.868386  8758 net.cpp:106] Creating Layer scale2c_branch2b
I0705 13:49:19.868391  8758 net.cpp:454] scale2c_branch2b <- res2c_branch2b
I0705 13:49:19.868396  8758 net.cpp:397] scale2c_branch2b -> res2c_branch2b (in-place)
I0705 13:49:19.868438  8758 layer_factory.hpp:77] Creating layer scale2c_branch2b
I0705 13:49:19.868600  8758 net.cpp:150] Setting up scale2c_branch2b
I0705 13:49:19.868609  8758 net.cpp:157] Top shape: 1 64 150 250 (2400000)
I0705 13:49:19.868611  8758 net.cpp:165] Memory required for data: 1077600084
I0705 13:49:19.868618  8758 layer_factory.hpp:77] Creating layer res2c_branch2b_relu
I0705 13:49:19.868623  8758 net.cpp:106] Creating Layer res2c_branch2b_relu
I0705 13:49:19.868625  8758 net.cpp:454] res2c_branch2b_relu <- res2c_branch2b
I0705 13:49:19.868631  8758 net.cpp:397] res2c_branch2b_relu -> res2c_branch2b (in-place)
I0705 13:49:19.868826  8758 net.cpp:150] Setting up res2c_branch2b_relu
I0705 13:49:19.868837  8758 net.cpp:157] Top shape: 1 64 150 250 (2400000)
I0705 13:49:19.868840  8758 net.cpp:165] Memory required for data: 1087200084
I0705 13:49:19.868844  8758 layer_factory.hpp:77] Creating layer res2c_branch2c
I0705 13:49:19.868851  8758 net.cpp:106] Creating Layer res2c_branch2c
I0705 13:49:19.868855  8758 net.cpp:454] res2c_branch2c <- res2c_branch2b
I0705 13:49:19.868860  8758 net.cpp:411] res2c_branch2c -> res2c_branch2c
I0705 13:49:19.869937  8758 net.cpp:150] Setting up res2c_branch2c
I0705 13:49:19.869951  8758 net.cpp:157] Top shape: 1 256 150 250 (9600000)
I0705 13:49:19.869966  8758 net.cpp:165] Memory required for data: 1125600084
I0705 13:49:19.869971  8758 layer_factory.hpp:77] Creating layer bn2c_branch2c
I0705 13:49:19.869977  8758 net.cpp:106] Creating Layer bn2c_branch2c
I0705 13:49:19.869982  8758 net.cpp:454] bn2c_branch2c <- res2c_branch2c
I0705 13:49:19.869987  8758 net.cpp:397] bn2c_branch2c -> res2c_branch2c (in-place)
I0705 13:49:19.870203  8758 net.cpp:150] Setting up bn2c_branch2c
I0705 13:49:19.870213  8758 net.cpp:157] Top shape: 1 256 150 250 (9600000)
I0705 13:49:19.870215  8758 net.cpp:165] Memory required for data: 1164000084
I0705 13:49:19.870229  8758 layer_factory.hpp:77] Creating layer scale2c_branch2c
I0705 13:49:19.870234  8758 net.cpp:106] Creating Layer scale2c_branch2c
I0705 13:49:19.870237  8758 net.cpp:454] scale2c_branch2c <- res2c_branch2c
I0705 13:49:19.870244  8758 net.cpp:397] scale2c_branch2c -> res2c_branch2c (in-place)
I0705 13:49:19.870285  8758 layer_factory.hpp:77] Creating layer scale2c_branch2c
I0705 13:49:19.870453  8758 net.cpp:150] Setting up scale2c_branch2c
I0705 13:49:19.870462  8758 net.cpp:157] Top shape: 1 256 150 250 (9600000)
I0705 13:49:19.870465  8758 net.cpp:165] Memory required for data: 1202400084
I0705 13:49:19.870471  8758 layer_factory.hpp:77] Creating layer res2c
I0705 13:49:19.870478  8758 net.cpp:106] Creating Layer res2c
I0705 13:49:19.870482  8758 net.cpp:454] res2c <- res2b_res2b_relu_0_split_1
I0705 13:49:19.870486  8758 net.cpp:454] res2c <- res2c_branch2c
I0705 13:49:19.870491  8758 net.cpp:411] res2c -> res2c
I0705 13:49:19.870515  8758 net.cpp:150] Setting up res2c
I0705 13:49:19.870522  8758 net.cpp:157] Top shape: 1 256 150 250 (9600000)
I0705 13:49:19.870524  8758 net.cpp:165] Memory required for data: 1240800084
I0705 13:49:19.870527  8758 layer_factory.hpp:77] Creating layer res2c_relu
I0705 13:49:19.870532  8758 net.cpp:106] Creating Layer res2c_relu
I0705 13:49:19.870534  8758 net.cpp:454] res2c_relu <- res2c
I0705 13:49:19.870540  8758 net.cpp:397] res2c_relu -> res2c (in-place)
I0705 13:49:19.870729  8758 net.cpp:150] Setting up res2c_relu
I0705 13:49:19.870740  8758 net.cpp:157] Top shape: 1 256 150 250 (9600000)
I0705 13:49:19.870743  8758 net.cpp:165] Memory required for data: 1279200084
I0705 13:49:19.870746  8758 layer_factory.hpp:77] Creating layer res2c_res2c_relu_0_split
I0705 13:49:19.870754  8758 net.cpp:106] Creating Layer res2c_res2c_relu_0_split
I0705 13:49:19.870757  8758 net.cpp:454] res2c_res2c_relu_0_split <- res2c
I0705 13:49:19.870762  8758 net.cpp:411] res2c_res2c_relu_0_split -> res2c_res2c_relu_0_split_0
I0705 13:49:19.870769  8758 net.cpp:411] res2c_res2c_relu_0_split -> res2c_res2c_relu_0_split_1
I0705 13:49:19.870808  8758 net.cpp:150] Setting up res2c_res2c_relu_0_split
I0705 13:49:19.870815  8758 net.cpp:157] Top shape: 1 256 150 250 (9600000)
I0705 13:49:19.870818  8758 net.cpp:157] Top shape: 1 256 150 250 (9600000)
I0705 13:49:19.870821  8758 net.cpp:165] Memory required for data: 1356000084
I0705 13:49:19.870824  8758 layer_factory.hpp:77] Creating layer res3a_branch1
I0705 13:49:19.870831  8758 net.cpp:106] Creating Layer res3a_branch1
I0705 13:49:19.870833  8758 net.cpp:454] res3a_branch1 <- res2c_res2c_relu_0_split_0
I0705 13:49:19.870839  8758 net.cpp:411] res3a_branch1 -> res3a_branch1
I0705 13:49:19.872293  8758 net.cpp:150] Setting up res3a_branch1
I0705 13:49:19.872320  8758 net.cpp:157] Top shape: 1 512 75 125 (4800000)
I0705 13:49:19.872324  8758 net.cpp:165] Memory required for data: 1375200084
I0705 13:49:19.872329  8758 layer_factory.hpp:77] Creating layer bn3a_branch1
I0705 13:49:19.872335  8758 net.cpp:106] Creating Layer bn3a_branch1
I0705 13:49:19.872339  8758 net.cpp:454] bn3a_branch1 <- res3a_branch1
I0705 13:49:19.872344  8758 net.cpp:397] bn3a_branch1 -> res3a_branch1 (in-place)
I0705 13:49:19.873415  8758 net.cpp:150] Setting up bn3a_branch1
I0705 13:49:19.873427  8758 net.cpp:157] Top shape: 1 512 75 125 (4800000)
I0705 13:49:19.873442  8758 net.cpp:165] Memory required for data: 1394400084
I0705 13:49:19.873450  8758 layer_factory.hpp:77] Creating layer scale3a_branch1
I0705 13:49:19.873457  8758 net.cpp:106] Creating Layer scale3a_branch1
I0705 13:49:19.873461  8758 net.cpp:454] scale3a_branch1 <- res3a_branch1
I0705 13:49:19.873466  8758 net.cpp:397] scale3a_branch1 -> res3a_branch1 (in-place)
I0705 13:49:19.873517  8758 layer_factory.hpp:77] Creating layer scale3a_branch1
I0705 13:49:19.873644  8758 net.cpp:150] Setting up scale3a_branch1
I0705 13:49:19.873652  8758 net.cpp:157] Top shape: 1 512 75 125 (4800000)
I0705 13:49:19.873656  8758 net.cpp:165] Memory required for data: 1413600084
I0705 13:49:19.873661  8758 layer_factory.hpp:77] Creating layer res3a_branch2a
I0705 13:49:19.873668  8758 net.cpp:106] Creating Layer res3a_branch2a
I0705 13:49:19.873673  8758 net.cpp:454] res3a_branch2a <- res2c_res2c_relu_0_split_1
I0705 13:49:19.873679  8758 net.cpp:411] res3a_branch2a -> res3a_branch2a
I0705 13:49:19.874864  8758 net.cpp:150] Setting up res3a_branch2a
I0705 13:49:19.874889  8758 net.cpp:157] Top shape: 1 128 75 125 (1200000)
I0705 13:49:19.874892  8758 net.cpp:165] Memory required for data: 1418400084
I0705 13:49:19.874897  8758 layer_factory.hpp:77] Creating layer bn3a_branch2a
I0705 13:49:19.874914  8758 net.cpp:106] Creating Layer bn3a_branch2a
I0705 13:49:19.874918  8758 net.cpp:454] bn3a_branch2a <- res3a_branch2a
I0705 13:49:19.874927  8758 net.cpp:397] bn3a_branch2a -> res3a_branch2a (in-place)
I0705 13:49:19.875120  8758 net.cpp:150] Setting up bn3a_branch2a
I0705 13:49:19.875129  8758 net.cpp:157] Top shape: 1 128 75 125 (1200000)
I0705 13:49:19.875131  8758 net.cpp:165] Memory required for data: 1423200084
I0705 13:49:19.875138  8758 layer_factory.hpp:77] Creating layer scale3a_branch2a
I0705 13:49:19.875144  8758 net.cpp:106] Creating Layer scale3a_branch2a
I0705 13:49:19.875147  8758 net.cpp:454] scale3a_branch2a <- res3a_branch2a
I0705 13:49:19.875154  8758 net.cpp:397] scale3a_branch2a -> res3a_branch2a (in-place)
I0705 13:49:19.875190  8758 layer_factory.hpp:77] Creating layer scale3a_branch2a
I0705 13:49:19.875310  8758 net.cpp:150] Setting up scale3a_branch2a
I0705 13:49:19.875320  8758 net.cpp:157] Top shape: 1 128 75 125 (1200000)
I0705 13:49:19.875324  8758 net.cpp:165] Memory required for data: 1428000084
I0705 13:49:19.875329  8758 layer_factory.hpp:77] Creating layer res3a_branch2a_relu
I0705 13:49:19.875334  8758 net.cpp:106] Creating Layer res3a_branch2a_relu
I0705 13:49:19.875336  8758 net.cpp:454] res3a_branch2a_relu <- res3a_branch2a
I0705 13:49:19.875340  8758 net.cpp:397] res3a_branch2a_relu -> res3a_branch2a (in-place)
I0705 13:49:19.875524  8758 net.cpp:150] Setting up res3a_branch2a_relu
I0705 13:49:19.875535  8758 net.cpp:157] Top shape: 1 128 75 125 (1200000)
I0705 13:49:19.875537  8758 net.cpp:165] Memory required for data: 1432800084
I0705 13:49:19.875540  8758 layer_factory.hpp:77] Creating layer res3a_branch2b
I0705 13:49:19.875548  8758 net.cpp:106] Creating Layer res3a_branch2b
I0705 13:49:19.875552  8758 net.cpp:454] res3a_branch2b <- res3a_branch2a
I0705 13:49:19.875558  8758 net.cpp:411] res3a_branch2b -> res3a_branch2b
I0705 13:49:19.877012  8758 net.cpp:150] Setting up res3a_branch2b
I0705 13:49:19.877035  8758 net.cpp:157] Top shape: 1 128 75 125 (1200000)
I0705 13:49:19.877038  8758 net.cpp:165] Memory required for data: 1437600084
I0705 13:49:19.877044  8758 layer_factory.hpp:77] Creating layer bn3a_branch2b
I0705 13:49:19.877049  8758 net.cpp:106] Creating Layer bn3a_branch2b
I0705 13:49:19.877053  8758 net.cpp:454] bn3a_branch2b <- res3a_branch2b
I0705 13:49:19.877070  8758 net.cpp:397] bn3a_branch2b -> res3a_branch2b (in-place)
I0705 13:49:19.877267  8758 net.cpp:150] Setting up bn3a_branch2b
I0705 13:49:19.877275  8758 net.cpp:157] Top shape: 1 128 75 125 (1200000)
I0705 13:49:19.877279  8758 net.cpp:165] Memory required for data: 1442400084
I0705 13:49:19.877285  8758 layer_factory.hpp:77] Creating layer scale3a_branch2b
I0705 13:49:19.877298  8758 net.cpp:106] Creating Layer scale3a_branch2b
I0705 13:49:19.877302  8758 net.cpp:454] scale3a_branch2b <- res3a_branch2b
I0705 13:49:19.877306  8758 net.cpp:397] scale3a_branch2b -> res3a_branch2b (in-place)
I0705 13:49:19.877346  8758 layer_factory.hpp:77] Creating layer scale3a_branch2b
I0705 13:49:19.877470  8758 net.cpp:150] Setting up scale3a_branch2b
I0705 13:49:19.877480  8758 net.cpp:157] Top shape: 1 128 75 125 (1200000)
I0705 13:49:19.877481  8758 net.cpp:165] Memory required for data: 1447200084
I0705 13:49:19.877487  8758 layer_factory.hpp:77] Creating layer res3a_branch2b_relu
I0705 13:49:19.877492  8758 net.cpp:106] Creating Layer res3a_branch2b_relu
I0705 13:49:19.877496  8758 net.cpp:454] res3a_branch2b_relu <- res3a_branch2b
I0705 13:49:19.877501  8758 net.cpp:397] res3a_branch2b_relu -> res3a_branch2b (in-place)
I0705 13:49:19.878029  8758 net.cpp:150] Setting up res3a_branch2b_relu
I0705 13:49:19.878042  8758 net.cpp:157] Top shape: 1 128 75 125 (1200000)
I0705 13:49:19.878056  8758 net.cpp:165] Memory required for data: 1452000084
I0705 13:49:19.878059  8758 layer_factory.hpp:77] Creating layer res3a_branch2c
I0705 13:49:19.878068  8758 net.cpp:106] Creating Layer res3a_branch2c
I0705 13:49:19.878072  8758 net.cpp:454] res3a_branch2c <- res3a_branch2b
I0705 13:49:19.878087  8758 net.cpp:411] res3a_branch2c -> res3a_branch2c
I0705 13:49:19.878887  8758 net.cpp:150] Setting up res3a_branch2c
I0705 13:49:19.878901  8758 net.cpp:157] Top shape: 1 512 75 125 (4800000)
I0705 13:49:19.878913  8758 net.cpp:165] Memory required for data: 1471200084
I0705 13:49:19.878918  8758 layer_factory.hpp:77] Creating layer bn3a_branch2c
I0705 13:49:19.878926  8758 net.cpp:106] Creating Layer bn3a_branch2c
I0705 13:49:19.878929  8758 net.cpp:454] bn3a_branch2c <- res3a_branch2c
I0705 13:49:19.878934  8758 net.cpp:397] bn3a_branch2c -> res3a_branch2c (in-place)
I0705 13:49:19.879143  8758 net.cpp:150] Setting up bn3a_branch2c
I0705 13:49:19.879151  8758 net.cpp:157] Top shape: 1 512 75 125 (4800000)
I0705 13:49:19.879154  8758 net.cpp:165] Memory required for data: 1490400084
I0705 13:49:19.879161  8758 layer_factory.hpp:77] Creating layer scale3a_branch2c
I0705 13:49:19.879169  8758 net.cpp:106] Creating Layer scale3a_branch2c
I0705 13:49:19.879173  8758 net.cpp:454] scale3a_branch2c <- res3a_branch2c
I0705 13:49:19.879176  8758 net.cpp:397] scale3a_branch2c -> res3a_branch2c (in-place)
I0705 13:49:19.879210  8758 layer_factory.hpp:77] Creating layer scale3a_branch2c
I0705 13:49:19.879339  8758 net.cpp:150] Setting up scale3a_branch2c
I0705 13:49:19.879348  8758 net.cpp:157] Top shape: 1 512 75 125 (4800000)
I0705 13:49:19.879349  8758 net.cpp:165] Memory required for data: 1509600084
I0705 13:49:19.879355  8758 layer_factory.hpp:77] Creating layer res3a
I0705 13:49:19.879360  8758 net.cpp:106] Creating Layer res3a
I0705 13:49:19.879364  8758 net.cpp:454] res3a <- res3a_branch1
I0705 13:49:19.879367  8758 net.cpp:454] res3a <- res3a_branch2c
I0705 13:49:19.879374  8758 net.cpp:411] res3a -> res3a
I0705 13:49:19.879398  8758 net.cpp:150] Setting up res3a
I0705 13:49:19.879405  8758 net.cpp:157] Top shape: 1 512 75 125 (4800000)
I0705 13:49:19.879407  8758 net.cpp:165] Memory required for data: 1528800084
I0705 13:49:19.879410  8758 layer_factory.hpp:77] Creating layer res3a_relu
I0705 13:49:19.879415  8758 net.cpp:106] Creating Layer res3a_relu
I0705 13:49:19.879418  8758 net.cpp:454] res3a_relu <- res3a
I0705 13:49:19.879422  8758 net.cpp:397] res3a_relu -> res3a (in-place)
I0705 13:49:19.879966  8758 net.cpp:150] Setting up res3a_relu
I0705 13:49:19.879988  8758 net.cpp:157] Top shape: 1 512 75 125 (4800000)
I0705 13:49:19.879992  8758 net.cpp:165] Memory required for data: 1548000084
I0705 13:49:19.879997  8758 layer_factory.hpp:77] Creating layer res3a_res3a_relu_0_split
I0705 13:49:19.880002  8758 net.cpp:106] Creating Layer res3a_res3a_relu_0_split
I0705 13:49:19.880005  8758 net.cpp:454] res3a_res3a_relu_0_split <- res3a
I0705 13:49:19.880010  8758 net.cpp:411] res3a_res3a_relu_0_split -> res3a_res3a_relu_0_split_0
I0705 13:49:19.880029  8758 net.cpp:411] res3a_res3a_relu_0_split -> res3a_res3a_relu_0_split_1
I0705 13:49:19.880085  8758 net.cpp:150] Setting up res3a_res3a_relu_0_split
I0705 13:49:19.880092  8758 net.cpp:157] Top shape: 1 512 75 125 (4800000)
I0705 13:49:19.880095  8758 net.cpp:157] Top shape: 1 512 75 125 (4800000)
I0705 13:49:19.880098  8758 net.cpp:165] Memory required for data: 1586400084
I0705 13:49:19.880101  8758 layer_factory.hpp:77] Creating layer res3b_branch2a
I0705 13:49:19.880110  8758 net.cpp:106] Creating Layer res3b_branch2a
I0705 13:49:19.880113  8758 net.cpp:454] res3b_branch2a <- res3a_res3a_relu_0_split_0
I0705 13:49:19.880120  8758 net.cpp:411] res3b_branch2a -> res3b_branch2a
I0705 13:49:19.881232  8758 net.cpp:150] Setting up res3b_branch2a
I0705 13:49:19.881245  8758 net.cpp:157] Top shape: 1 128 75 125 (1200000)
I0705 13:49:19.881260  8758 net.cpp:165] Memory required for data: 1591200084
I0705 13:49:19.881265  8758 layer_factory.hpp:77] Creating layer bn3b_branch2a
I0705 13:49:19.881271  8758 net.cpp:106] Creating Layer bn3b_branch2a
I0705 13:49:19.881275  8758 net.cpp:454] bn3b_branch2a <- res3b_branch2a
I0705 13:49:19.881281  8758 net.cpp:397] bn3b_branch2a -> res3b_branch2a (in-place)
I0705 13:49:19.881476  8758 net.cpp:150] Setting up bn3b_branch2a
I0705 13:49:19.881485  8758 net.cpp:157] Top shape: 1 128 75 125 (1200000)
I0705 13:49:19.881487  8758 net.cpp:165] Memory required for data: 1596000084
I0705 13:49:19.881494  8758 layer_factory.hpp:77] Creating layer scale3b_branch2a
I0705 13:49:19.881500  8758 net.cpp:106] Creating Layer scale3b_branch2a
I0705 13:49:19.881502  8758 net.cpp:454] scale3b_branch2a <- res3b_branch2a
I0705 13:49:19.881508  8758 net.cpp:397] scale3b_branch2a -> res3b_branch2a (in-place)
I0705 13:49:19.881557  8758 layer_factory.hpp:77] Creating layer scale3b_branch2a
I0705 13:49:19.881680  8758 net.cpp:150] Setting up scale3b_branch2a
I0705 13:49:19.881688  8758 net.cpp:157] Top shape: 1 128 75 125 (1200000)
I0705 13:49:19.881690  8758 net.cpp:165] Memory required for data: 1600800084
I0705 13:49:19.881696  8758 layer_factory.hpp:77] Creating layer res3b_branch2a_relu
I0705 13:49:19.881701  8758 net.cpp:106] Creating Layer res3b_branch2a_relu
I0705 13:49:19.881705  8758 net.cpp:454] res3b_branch2a_relu <- res3b_branch2a
I0705 13:49:19.881708  8758 net.cpp:397] res3b_branch2a_relu -> res3b_branch2a (in-place)
I0705 13:49:19.881902  8758 net.cpp:150] Setting up res3b_branch2a_relu
I0705 13:49:19.881913  8758 net.cpp:157] Top shape: 1 128 75 125 (1200000)
I0705 13:49:19.881916  8758 net.cpp:165] Memory required for data: 1605600084
I0705 13:49:19.881919  8758 layer_factory.hpp:77] Creating layer res3b_branch2b
I0705 13:49:19.881927  8758 net.cpp:106] Creating Layer res3b_branch2b
I0705 13:49:19.881932  8758 net.cpp:454] res3b_branch2b <- res3b_branch2a
I0705 13:49:19.881937  8758 net.cpp:411] res3b_branch2b -> res3b_branch2b
I0705 13:49:19.884654  8758 net.cpp:150] Setting up res3b_branch2b
I0705 13:49:19.884667  8758 net.cpp:157] Top shape: 1 128 75 125 (1200000)
I0705 13:49:19.884682  8758 net.cpp:165] Memory required for data: 1610400084
I0705 13:49:19.884688  8758 layer_factory.hpp:77] Creating layer bn3b_branch2b
I0705 13:49:19.884696  8758 net.cpp:106] Creating Layer bn3b_branch2b
I0705 13:49:19.884699  8758 net.cpp:454] bn3b_branch2b <- res3b_branch2b
I0705 13:49:19.884704  8758 net.cpp:397] bn3b_branch2b -> res3b_branch2b (in-place)
I0705 13:49:19.884909  8758 net.cpp:150] Setting up bn3b_branch2b
I0705 13:49:19.884929  8758 net.cpp:157] Top shape: 1 128 75 125 (1200000)
I0705 13:49:19.884932  8758 net.cpp:165] Memory required for data: 1615200084
I0705 13:49:19.884940  8758 layer_factory.hpp:77] Creating layer scale3b_branch2b
I0705 13:49:19.884946  8758 net.cpp:106] Creating Layer scale3b_branch2b
I0705 13:49:19.884949  8758 net.cpp:454] scale3b_branch2b <- res3b_branch2b
I0705 13:49:19.884954  8758 net.cpp:397] scale3b_branch2b -> res3b_branch2b (in-place)
I0705 13:49:19.884994  8758 layer_factory.hpp:77] Creating layer scale3b_branch2b
I0705 13:49:19.885118  8758 net.cpp:150] Setting up scale3b_branch2b
I0705 13:49:19.885126  8758 net.cpp:157] Top shape: 1 128 75 125 (1200000)
I0705 13:49:19.885128  8758 net.cpp:165] Memory required for data: 1620000084
I0705 13:49:19.885133  8758 layer_factory.hpp:77] Creating layer res3b_branch2b_relu
I0705 13:49:19.885139  8758 net.cpp:106] Creating Layer res3b_branch2b_relu
I0705 13:49:19.885143  8758 net.cpp:454] res3b_branch2b_relu <- res3b_branch2b
I0705 13:49:19.885149  8758 net.cpp:397] res3b_branch2b_relu -> res3b_branch2b (in-place)
I0705 13:49:19.885327  8758 net.cpp:150] Setting up res3b_branch2b_relu
I0705 13:49:19.885337  8758 net.cpp:157] Top shape: 1 128 75 125 (1200000)
I0705 13:49:19.885340  8758 net.cpp:165] Memory required for data: 1624800084
I0705 13:49:19.885344  8758 layer_factory.hpp:77] Creating layer res3b_branch2c
I0705 13:49:19.885350  8758 net.cpp:106] Creating Layer res3b_branch2c
I0705 13:49:19.885354  8758 net.cpp:454] res3b_branch2c <- res3b_branch2b
I0705 13:49:19.885360  8758 net.cpp:411] res3b_branch2c -> res3b_branch2c
I0705 13:49:19.886447  8758 net.cpp:150] Setting up res3b_branch2c
I0705 13:49:19.886461  8758 net.cpp:157] Top shape: 1 512 75 125 (4800000)
I0705 13:49:19.886464  8758 net.cpp:165] Memory required for data: 1644000084
I0705 13:49:19.886469  8758 layer_factory.hpp:77] Creating layer bn3b_branch2c
I0705 13:49:19.886476  8758 net.cpp:106] Creating Layer bn3b_branch2c
I0705 13:49:19.886479  8758 net.cpp:454] bn3b_branch2c <- res3b_branch2c
I0705 13:49:19.886495  8758 net.cpp:397] bn3b_branch2c -> res3b_branch2c (in-place)
I0705 13:49:19.886698  8758 net.cpp:150] Setting up bn3b_branch2c
I0705 13:49:19.886706  8758 net.cpp:157] Top shape: 1 512 75 125 (4800000)
I0705 13:49:19.886709  8758 net.cpp:165] Memory required for data: 1663200084
I0705 13:49:19.886715  8758 layer_factory.hpp:77] Creating layer scale3b_branch2c
I0705 13:49:19.886721  8758 net.cpp:106] Creating Layer scale3b_branch2c
I0705 13:49:19.886724  8758 net.cpp:454] scale3b_branch2c <- res3b_branch2c
I0705 13:49:19.886729  8758 net.cpp:397] scale3b_branch2c -> res3b_branch2c (in-place)
I0705 13:49:19.886770  8758 layer_factory.hpp:77] Creating layer scale3b_branch2c
I0705 13:49:19.886901  8758 net.cpp:150] Setting up scale3b_branch2c
I0705 13:49:19.886910  8758 net.cpp:157] Top shape: 1 512 75 125 (4800000)
I0705 13:49:19.886914  8758 net.cpp:165] Memory required for data: 1682400084
I0705 13:49:19.886919  8758 layer_factory.hpp:77] Creating layer res3b
I0705 13:49:19.886924  8758 net.cpp:106] Creating Layer res3b
I0705 13:49:19.886926  8758 net.cpp:454] res3b <- res3a_res3a_relu_0_split_1
I0705 13:49:19.886931  8758 net.cpp:454] res3b <- res3b_branch2c
I0705 13:49:19.886937  8758 net.cpp:411] res3b -> res3b
I0705 13:49:19.886962  8758 net.cpp:150] Setting up res3b
I0705 13:49:19.886968  8758 net.cpp:157] Top shape: 1 512 75 125 (4800000)
I0705 13:49:19.886971  8758 net.cpp:165] Memory required for data: 1701600084
I0705 13:49:19.886974  8758 layer_factory.hpp:77] Creating layer res3b_relu
I0705 13:49:19.886981  8758 net.cpp:106] Creating Layer res3b_relu
I0705 13:49:19.886983  8758 net.cpp:454] res3b_relu <- res3b
I0705 13:49:19.886988  8758 net.cpp:397] res3b_relu -> res3b (in-place)
I0705 13:49:19.887164  8758 net.cpp:150] Setting up res3b_relu
I0705 13:49:19.887174  8758 net.cpp:157] Top shape: 1 512 75 125 (4800000)
I0705 13:49:19.887177  8758 net.cpp:165] Memory required for data: 1720800084
I0705 13:49:19.887181  8758 layer_factory.hpp:77] Creating layer res3b_res3b_relu_0_split
I0705 13:49:19.887187  8758 net.cpp:106] Creating Layer res3b_res3b_relu_0_split
I0705 13:49:19.887192  8758 net.cpp:454] res3b_res3b_relu_0_split <- res3b
I0705 13:49:19.887197  8758 net.cpp:411] res3b_res3b_relu_0_split -> res3b_res3b_relu_0_split_0
I0705 13:49:19.887202  8758 net.cpp:411] res3b_res3b_relu_0_split -> res3b_res3b_relu_0_split_1
I0705 13:49:19.887250  8758 net.cpp:150] Setting up res3b_res3b_relu_0_split
I0705 13:49:19.887257  8758 net.cpp:157] Top shape: 1 512 75 125 (4800000)
I0705 13:49:19.887260  8758 net.cpp:157] Top shape: 1 512 75 125 (4800000)
I0705 13:49:19.887264  8758 net.cpp:165] Memory required for data: 1759200084
I0705 13:49:19.887266  8758 layer_factory.hpp:77] Creating layer res3c_branch2a
I0705 13:49:19.887274  8758 net.cpp:106] Creating Layer res3c_branch2a
I0705 13:49:19.887277  8758 net.cpp:454] res3c_branch2a <- res3b_res3b_relu_0_split_0
I0705 13:49:19.887284  8758 net.cpp:411] res3c_branch2a -> res3c_branch2a
I0705 13:49:19.888367  8758 net.cpp:150] Setting up res3c_branch2a
I0705 13:49:19.888381  8758 net.cpp:157] Top shape: 1 128 75 125 (1200000)
I0705 13:49:19.888393  8758 net.cpp:165] Memory required for data: 1764000084
I0705 13:49:19.888398  8758 layer_factory.hpp:77] Creating layer bn3c_branch2a
I0705 13:49:19.888403  8758 net.cpp:106] Creating Layer bn3c_branch2a
I0705 13:49:19.888407  8758 net.cpp:454] bn3c_branch2a <- res3c_branch2a
I0705 13:49:19.888424  8758 net.cpp:397] bn3c_branch2a -> res3c_branch2a (in-place)
I0705 13:49:19.888635  8758 net.cpp:150] Setting up bn3c_branch2a
I0705 13:49:19.888644  8758 net.cpp:157] Top shape: 1 128 75 125 (1200000)
I0705 13:49:19.888648  8758 net.cpp:165] Memory required for data: 1768800084
I0705 13:49:19.888653  8758 layer_factory.hpp:77] Creating layer scale3c_branch2a
I0705 13:49:19.888659  8758 net.cpp:106] Creating Layer scale3c_branch2a
I0705 13:49:19.888662  8758 net.cpp:454] scale3c_branch2a <- res3c_branch2a
I0705 13:49:19.888666  8758 net.cpp:397] scale3c_branch2a -> res3c_branch2a (in-place)
I0705 13:49:19.888705  8758 layer_factory.hpp:77] Creating layer scale3c_branch2a
I0705 13:49:19.888830  8758 net.cpp:150] Setting up scale3c_branch2a
I0705 13:49:19.888839  8758 net.cpp:157] Top shape: 1 128 75 125 (1200000)
I0705 13:49:19.888842  8758 net.cpp:165] Memory required for data: 1773600084
I0705 13:49:19.888849  8758 layer_factory.hpp:77] Creating layer res3c_branch2a_relu
I0705 13:49:19.888852  8758 net.cpp:106] Creating Layer res3c_branch2a_relu
I0705 13:49:19.888856  8758 net.cpp:454] res3c_branch2a_relu <- res3c_branch2a
I0705 13:49:19.888860  8758 net.cpp:397] res3c_branch2a_relu -> res3c_branch2a (in-place)
I0705 13:49:19.889045  8758 net.cpp:150] Setting up res3c_branch2a_relu
I0705 13:49:19.889056  8758 net.cpp:157] Top shape: 1 128 75 125 (1200000)
I0705 13:49:19.889060  8758 net.cpp:165] Memory required for data: 1778400084
I0705 13:49:19.889062  8758 layer_factory.hpp:77] Creating layer res3c_branch2b
I0705 13:49:19.889071  8758 net.cpp:106] Creating Layer res3c_branch2b
I0705 13:49:19.889075  8758 net.cpp:454] res3c_branch2b <- res3c_branch2a
I0705 13:49:19.889081  8758 net.cpp:411] res3c_branch2b -> res3c_branch2b
I0705 13:49:19.890547  8758 net.cpp:150] Setting up res3c_branch2b
I0705 13:49:19.890571  8758 net.cpp:157] Top shape: 1 128 75 125 (1200000)
I0705 13:49:19.890574  8758 net.cpp:165] Memory required for data: 1783200084
I0705 13:49:19.890580  8758 layer_factory.hpp:77] Creating layer bn3c_branch2b
I0705 13:49:19.890588  8758 net.cpp:106] Creating Layer bn3c_branch2b
I0705 13:49:19.890590  8758 net.cpp:454] bn3c_branch2b <- res3c_branch2b
I0705 13:49:19.890597  8758 net.cpp:397] bn3c_branch2b -> res3c_branch2b (in-place)
I0705 13:49:19.890802  8758 net.cpp:150] Setting up bn3c_branch2b
I0705 13:49:19.890811  8758 net.cpp:157] Top shape: 1 128 75 125 (1200000)
I0705 13:49:19.890813  8758 net.cpp:165] Memory required for data: 1788000084
I0705 13:49:19.890820  8758 layer_factory.hpp:77] Creating layer scale3c_branch2b
I0705 13:49:19.890828  8758 net.cpp:106] Creating Layer scale3c_branch2b
I0705 13:49:19.890831  8758 net.cpp:454] scale3c_branch2b <- res3c_branch2b
I0705 13:49:19.890837  8758 net.cpp:397] scale3c_branch2b -> res3c_branch2b (in-place)
I0705 13:49:19.890877  8758 layer_factory.hpp:77] Creating layer scale3c_branch2b
I0705 13:49:19.891003  8758 net.cpp:150] Setting up scale3c_branch2b
I0705 13:49:19.891011  8758 net.cpp:157] Top shape: 1 128 75 125 (1200000)
I0705 13:49:19.891013  8758 net.cpp:165] Memory required for data: 1792800084
I0705 13:49:19.891019  8758 layer_factory.hpp:77] Creating layer res3c_branch2b_relu
I0705 13:49:19.891026  8758 net.cpp:106] Creating Layer res3c_branch2b_relu
I0705 13:49:19.891028  8758 net.cpp:454] res3c_branch2b_relu <- res3c_branch2b
I0705 13:49:19.891032  8758 net.cpp:397] res3c_branch2b_relu -> res3c_branch2b (in-place)
I0705 13:49:19.891559  8758 net.cpp:150] Setting up res3c_branch2b_relu
I0705 13:49:19.891572  8758 net.cpp:157] Top shape: 1 128 75 125 (1200000)
I0705 13:49:19.891585  8758 net.cpp:165] Memory required for data: 1797600084
I0705 13:49:19.891588  8758 layer_factory.hpp:77] Creating layer res3c_branch2c
I0705 13:49:19.891597  8758 net.cpp:106] Creating Layer res3c_branch2c
I0705 13:49:19.891602  8758 net.cpp:454] res3c_branch2c <- res3c_branch2b
I0705 13:49:19.891618  8758 net.cpp:411] res3c_branch2c -> res3c_branch2c
I0705 13:49:19.893254  8758 net.cpp:150] Setting up res3c_branch2c
I0705 13:49:19.893267  8758 net.cpp:157] Top shape: 1 512 75 125 (4800000)
I0705 13:49:19.893280  8758 net.cpp:165] Memory required for data: 1816800084
I0705 13:49:19.893285  8758 layer_factory.hpp:77] Creating layer bn3c_branch2c
I0705 13:49:19.893291  8758 net.cpp:106] Creating Layer bn3c_branch2c
I0705 13:49:19.893296  8758 net.cpp:454] bn3c_branch2c <- res3c_branch2c
I0705 13:49:19.893301  8758 net.cpp:397] bn3c_branch2c -> res3c_branch2c (in-place)
I0705 13:49:19.893520  8758 net.cpp:150] Setting up bn3c_branch2c
I0705 13:49:19.893528  8758 net.cpp:157] Top shape: 1 512 75 125 (4800000)
I0705 13:49:19.893532  8758 net.cpp:165] Memory required for data: 1836000084
I0705 13:49:19.893537  8758 layer_factory.hpp:77] Creating layer scale3c_branch2c
I0705 13:49:19.893543  8758 net.cpp:106] Creating Layer scale3c_branch2c
I0705 13:49:19.893546  8758 net.cpp:454] scale3c_branch2c <- res3c_branch2c
I0705 13:49:19.893553  8758 net.cpp:397] scale3c_branch2c -> res3c_branch2c (in-place)
I0705 13:49:19.893587  8758 layer_factory.hpp:77] Creating layer scale3c_branch2c
I0705 13:49:19.893721  8758 net.cpp:150] Setting up scale3c_branch2c
I0705 13:49:19.893729  8758 net.cpp:157] Top shape: 1 512 75 125 (4800000)
I0705 13:49:19.893731  8758 net.cpp:165] Memory required for data: 1855200084
I0705 13:49:19.893738  8758 layer_factory.hpp:77] Creating layer res3c
I0705 13:49:19.893741  8758 net.cpp:106] Creating Layer res3c
I0705 13:49:19.893745  8758 net.cpp:454] res3c <- res3b_res3b_relu_0_split_1
I0705 13:49:19.893750  8758 net.cpp:454] res3c <- res3c_branch2c
I0705 13:49:19.893754  8758 net.cpp:411] res3c -> res3c
I0705 13:49:19.893781  8758 net.cpp:150] Setting up res3c
I0705 13:49:19.893790  8758 net.cpp:157] Top shape: 1 512 75 125 (4800000)
I0705 13:49:19.893791  8758 net.cpp:165] Memory required for data: 1874400084
I0705 13:49:19.893795  8758 layer_factory.hpp:77] Creating layer res3c_relu
I0705 13:49:19.893800  8758 net.cpp:106] Creating Layer res3c_relu
I0705 13:49:19.893802  8758 net.cpp:454] res3c_relu <- res3c
I0705 13:49:19.893806  8758 net.cpp:397] res3c_relu -> res3c (in-place)
I0705 13:49:19.894330  8758 net.cpp:150] Setting up res3c_relu
I0705 13:49:19.894341  8758 net.cpp:157] Top shape: 1 512 75 125 (4800000)
I0705 13:49:19.894354  8758 net.cpp:165] Memory required for data: 1893600084
I0705 13:49:19.894358  8758 layer_factory.hpp:77] Creating layer res3c_res3c_relu_0_split
I0705 13:49:19.894364  8758 net.cpp:106] Creating Layer res3c_res3c_relu_0_split
I0705 13:49:19.894368  8758 net.cpp:454] res3c_res3c_relu_0_split <- res3c
I0705 13:49:19.894373  8758 net.cpp:411] res3c_res3c_relu_0_split -> res3c_res3c_relu_0_split_0
I0705 13:49:19.894407  8758 net.cpp:411] res3c_res3c_relu_0_split -> res3c_res3c_relu_0_split_1
I0705 13:49:19.894455  8758 net.cpp:150] Setting up res3c_res3c_relu_0_split
I0705 13:49:19.894462  8758 net.cpp:157] Top shape: 1 512 75 125 (4800000)
I0705 13:49:19.894466  8758 net.cpp:157] Top shape: 1 512 75 125 (4800000)
I0705 13:49:19.894469  8758 net.cpp:165] Memory required for data: 1932000084
I0705 13:49:19.894471  8758 layer_factory.hpp:77] Creating layer res3d_branch2a
I0705 13:49:19.894479  8758 net.cpp:106] Creating Layer res3d_branch2a
I0705 13:49:19.894484  8758 net.cpp:454] res3d_branch2a <- res3c_res3c_relu_0_split_0
I0705 13:49:19.894490  8758 net.cpp:411] res3d_branch2a -> res3d_branch2a
I0705 13:49:19.895591  8758 net.cpp:150] Setting up res3d_branch2a
I0705 13:49:19.895617  8758 net.cpp:157] Top shape: 1 128 75 125 (1200000)
I0705 13:49:19.895620  8758 net.cpp:165] Memory required for data: 1936800084
I0705 13:49:19.895627  8758 layer_factory.hpp:77] Creating layer bn3d_branch2a
I0705 13:49:19.895632  8758 net.cpp:106] Creating Layer bn3d_branch2a
I0705 13:49:19.895647  8758 net.cpp:454] bn3d_branch2a <- res3d_branch2a
I0705 13:49:19.895653  8758 net.cpp:397] bn3d_branch2a -> res3d_branch2a (in-place)
I0705 13:49:19.895856  8758 net.cpp:150] Setting up bn3d_branch2a
I0705 13:49:19.895865  8758 net.cpp:157] Top shape: 1 128 75 125 (1200000)
I0705 13:49:19.895867  8758 net.cpp:165] Memory required for data: 1941600084
I0705 13:49:19.895884  8758 layer_factory.hpp:77] Creating layer scale3d_branch2a
I0705 13:49:19.895895  8758 net.cpp:106] Creating Layer scale3d_branch2a
I0705 13:49:19.895897  8758 net.cpp:454] scale3d_branch2a <- res3d_branch2a
I0705 13:49:19.895902  8758 net.cpp:397] scale3d_branch2a -> res3d_branch2a (in-place)
I0705 13:49:19.895944  8758 layer_factory.hpp:77] Creating layer scale3d_branch2a
I0705 13:49:19.896071  8758 net.cpp:150] Setting up scale3d_branch2a
I0705 13:49:19.896080  8758 net.cpp:157] Top shape: 1 128 75 125 (1200000)
I0705 13:49:19.896082  8758 net.cpp:165] Memory required for data: 1946400084
I0705 13:49:19.896087  8758 layer_factory.hpp:77] Creating layer res3d_branch2a_relu
I0705 13:49:19.896095  8758 net.cpp:106] Creating Layer res3d_branch2a_relu
I0705 13:49:19.896097  8758 net.cpp:454] res3d_branch2a_relu <- res3d_branch2a
I0705 13:49:19.896101  8758 net.cpp:397] res3d_branch2a_relu -> res3d_branch2a (in-place)
I0705 13:49:19.896282  8758 net.cpp:150] Setting up res3d_branch2a_relu
I0705 13:49:19.896293  8758 net.cpp:157] Top shape: 1 128 75 125 (1200000)
I0705 13:49:19.896296  8758 net.cpp:165] Memory required for data: 1951200084
I0705 13:49:19.896299  8758 layer_factory.hpp:77] Creating layer res3d_branch2b
I0705 13:49:19.896307  8758 net.cpp:106] Creating Layer res3d_branch2b
I0705 13:49:19.896311  8758 net.cpp:454] res3d_branch2b <- res3d_branch2a
I0705 13:49:19.896318  8758 net.cpp:411] res3d_branch2b -> res3d_branch2b
I0705 13:49:19.897766  8758 net.cpp:150] Setting up res3d_branch2b
I0705 13:49:19.897790  8758 net.cpp:157] Top shape: 1 128 75 125 (1200000)
I0705 13:49:19.897794  8758 net.cpp:165] Memory required for data: 1956000084
I0705 13:49:19.897799  8758 layer_factory.hpp:77] Creating layer bn3d_branch2b
I0705 13:49:19.897805  8758 net.cpp:106] Creating Layer bn3d_branch2b
I0705 13:49:19.897809  8758 net.cpp:454] bn3d_branch2b <- res3d_branch2b
I0705 13:49:19.897826  8758 net.cpp:397] bn3d_branch2b -> res3d_branch2b (in-place)
I0705 13:49:19.898035  8758 net.cpp:150] Setting up bn3d_branch2b
I0705 13:49:19.898043  8758 net.cpp:157] Top shape: 1 128 75 125 (1200000)
I0705 13:49:19.898046  8758 net.cpp:165] Memory required for data: 1960800084
I0705 13:49:19.898053  8758 layer_factory.hpp:77] Creating layer scale3d_branch2b
I0705 13:49:19.898058  8758 net.cpp:106] Creating Layer scale3d_branch2b
I0705 13:49:19.898061  8758 net.cpp:454] scale3d_branch2b <- res3d_branch2b
I0705 13:49:19.898066  8758 net.cpp:397] scale3d_branch2b -> res3d_branch2b (in-place)
I0705 13:49:19.898104  8758 layer_factory.hpp:77] Creating layer scale3d_branch2b
I0705 13:49:19.898236  8758 net.cpp:150] Setting up scale3d_branch2b
I0705 13:49:19.898246  8758 net.cpp:157] Top shape: 1 128 75 125 (1200000)
I0705 13:49:19.898247  8758 net.cpp:165] Memory required for data: 1965600084
I0705 13:49:19.898253  8758 layer_factory.hpp:77] Creating layer res3d_branch2b_relu
I0705 13:49:19.898259  8758 net.cpp:106] Creating Layer res3d_branch2b_relu
I0705 13:49:19.898262  8758 net.cpp:454] res3d_branch2b_relu <- res3d_branch2b
I0705 13:49:19.898267  8758 net.cpp:397] res3d_branch2b_relu -> res3d_branch2b (in-place)
I0705 13:49:19.898488  8758 net.cpp:150] Setting up res3d_branch2b_relu
I0705 13:49:19.898500  8758 net.cpp:157] Top shape: 1 128 75 125 (1200000)
I0705 13:49:19.898504  8758 net.cpp:165] Memory required for data: 1970400084
I0705 13:49:19.898506  8758 layer_factory.hpp:77] Creating layer res3d_branch2c
I0705 13:49:19.898514  8758 net.cpp:106] Creating Layer res3d_branch2c
I0705 13:49:19.898519  8758 net.cpp:454] res3d_branch2c <- res3d_branch2b
I0705 13:49:19.898525  8758 net.cpp:411] res3d_branch2c -> res3d_branch2c
I0705 13:49:19.899613  8758 net.cpp:150] Setting up res3d_branch2c
I0705 13:49:19.899627  8758 net.cpp:157] Top shape: 1 512 75 125 (4800000)
I0705 13:49:19.899641  8758 net.cpp:165] Memory required for data: 1989600084
I0705 13:49:19.899646  8758 layer_factory.hpp:77] Creating layer bn3d_branch2c
I0705 13:49:19.899652  8758 net.cpp:106] Creating Layer bn3d_branch2c
I0705 13:49:19.899654  8758 net.cpp:454] bn3d_branch2c <- res3d_branch2c
I0705 13:49:19.899672  8758 net.cpp:397] bn3d_branch2c -> res3d_branch2c (in-place)
I0705 13:49:19.899878  8758 net.cpp:150] Setting up bn3d_branch2c
I0705 13:49:19.899886  8758 net.cpp:157] Top shape: 1 512 75 125 (4800000)
I0705 13:49:19.899889  8758 net.cpp:165] Memory required for data: 2008800084
I0705 13:49:19.899895  8758 layer_factory.hpp:77] Creating layer scale3d_branch2c
I0705 13:49:19.899900  8758 net.cpp:106] Creating Layer scale3d_branch2c
I0705 13:49:19.899904  8758 net.cpp:454] scale3d_branch2c <- res3d_branch2c
I0705 13:49:19.899907  8758 net.cpp:397] scale3d_branch2c -> res3d_branch2c (in-place)
I0705 13:49:19.899945  8758 layer_factory.hpp:77] Creating layer scale3d_branch2c
I0705 13:49:19.900074  8758 net.cpp:150] Setting up scale3d_branch2c
I0705 13:49:19.900081  8758 net.cpp:157] Top shape: 1 512 75 125 (4800000)
I0705 13:49:19.900084  8758 net.cpp:165] Memory required for data: 2028000084
I0705 13:49:19.900089  8758 layer_factory.hpp:77] Creating layer res3d
I0705 13:49:19.900095  8758 net.cpp:106] Creating Layer res3d
I0705 13:49:19.900099  8758 net.cpp:454] res3d <- res3c_res3c_relu_0_split_1
I0705 13:49:19.900104  8758 net.cpp:454] res3d <- res3d_branch2c
I0705 13:49:19.900107  8758 net.cpp:411] res3d -> res3d
I0705 13:49:19.900151  8758 net.cpp:150] Setting up res3d
I0705 13:49:19.900159  8758 net.cpp:157] Top shape: 1 512 75 125 (4800000)
I0705 13:49:19.900162  8758 net.cpp:165] Memory required for data: 2047200084
I0705 13:49:19.900166  8758 layer_factory.hpp:77] Creating layer res3d_relu
I0705 13:49:19.900169  8758 net.cpp:106] Creating Layer res3d_relu
I0705 13:49:19.900173  8758 net.cpp:454] res3d_relu <- res3d
I0705 13:49:19.900179  8758 net.cpp:397] res3d_relu -> res3d (in-place)
I0705 13:49:19.900367  8758 net.cpp:150] Setting up res3d_relu
I0705 13:49:19.900378  8758 net.cpp:157] Top shape: 1 512 75 125 (4800000)
I0705 13:49:19.900380  8758 net.cpp:165] Memory required for data: 2066400084
I0705 13:49:19.900384  8758 layer_factory.hpp:77] Creating layer res3d_res3d_relu_0_split
I0705 13:49:19.900389  8758 net.cpp:106] Creating Layer res3d_res3d_relu_0_split
I0705 13:49:19.900393  8758 net.cpp:454] res3d_res3d_relu_0_split <- res3d
I0705 13:49:19.900398  8758 net.cpp:411] res3d_res3d_relu_0_split -> res3d_res3d_relu_0_split_0
I0705 13:49:19.900404  8758 net.cpp:411] res3d_res3d_relu_0_split -> res3d_res3d_relu_0_split_1
I0705 13:49:19.900449  8758 net.cpp:150] Setting up res3d_res3d_relu_0_split
I0705 13:49:19.900455  8758 net.cpp:157] Top shape: 1 512 75 125 (4800000)
I0705 13:49:19.900460  8758 net.cpp:157] Top shape: 1 512 75 125 (4800000)
I0705 13:49:19.900461  8758 net.cpp:165] Memory required for data: 2104800084
I0705 13:49:19.900465  8758 layer_factory.hpp:77] Creating layer res4a_branch1
I0705 13:49:19.900472  8758 net.cpp:106] Creating Layer res4a_branch1
I0705 13:49:19.900475  8758 net.cpp:454] res4a_branch1 <- res3d_res3d_relu_0_split_0
I0705 13:49:19.900480  8758 net.cpp:411] res4a_branch1 -> res4a_branch1
I0705 13:49:19.902724  8758 net.cpp:150] Setting up res4a_branch1
I0705 13:49:19.902748  8758 net.cpp:157] Top shape: 1 1024 38 63 (2451456)
I0705 13:49:19.902751  8758 net.cpp:165] Memory required for data: 2114605908
I0705 13:49:19.902756  8758 layer_factory.hpp:77] Creating layer bn4a_branch1
I0705 13:49:19.902763  8758 net.cpp:106] Creating Layer bn4a_branch1
I0705 13:49:19.902767  8758 net.cpp:454] bn4a_branch1 <- res4a_branch1
I0705 13:49:19.902783  8758 net.cpp:397] bn4a_branch1 -> res4a_branch1 (in-place)
I0705 13:49:19.902982  8758 net.cpp:150] Setting up bn4a_branch1
I0705 13:49:19.902990  8758 net.cpp:157] Top shape: 1 1024 38 63 (2451456)
I0705 13:49:19.902993  8758 net.cpp:165] Memory required for data: 2124411732
I0705 13:49:19.903000  8758 layer_factory.hpp:77] Creating layer scale4a_branch1
I0705 13:49:19.903007  8758 net.cpp:106] Creating Layer scale4a_branch1
I0705 13:49:19.903010  8758 net.cpp:454] scale4a_branch1 <- res4a_branch1
I0705 13:49:19.903014  8758 net.cpp:397] scale4a_branch1 -> res4a_branch1 (in-place)
I0705 13:49:19.903053  8758 layer_factory.hpp:77] Creating layer scale4a_branch1
I0705 13:49:19.903180  8758 net.cpp:150] Setting up scale4a_branch1
I0705 13:49:19.903188  8758 net.cpp:157] Top shape: 1 1024 38 63 (2451456)
I0705 13:49:19.903192  8758 net.cpp:165] Memory required for data: 2134217556
I0705 13:49:19.903196  8758 layer_factory.hpp:77] Creating layer res4a_branch2a
I0705 13:49:19.903203  8758 net.cpp:106] Creating Layer res4a_branch2a
I0705 13:49:19.903208  8758 net.cpp:454] res4a_branch2a <- res3d_res3d_relu_0_split_1
I0705 13:49:19.903216  8758 net.cpp:411] res4a_branch2a -> res4a_branch2a
I0705 13:49:19.905241  8758 net.cpp:150] Setting up res4a_branch2a
I0705 13:49:19.905256  8758 net.cpp:157] Top shape: 1 256 38 63 (612864)
I0705 13:49:19.905268  8758 net.cpp:165] Memory required for data: 2136669012
I0705 13:49:19.905274  8758 layer_factory.hpp:77] Creating layer bn4a_branch2a
I0705 13:49:19.905282  8758 net.cpp:106] Creating Layer bn4a_branch2a
I0705 13:49:19.905285  8758 net.cpp:454] bn4a_branch2a <- res4a_branch2a
I0705 13:49:19.905300  8758 net.cpp:397] bn4a_branch2a -> res4a_branch2a (in-place)
I0705 13:49:19.905503  8758 net.cpp:150] Setting up bn4a_branch2a
I0705 13:49:19.905511  8758 net.cpp:157] Top shape: 1 256 38 63 (612864)
I0705 13:49:19.905514  8758 net.cpp:165] Memory required for data: 2139120468
I0705 13:49:19.905521  8758 layer_factory.hpp:77] Creating layer scale4a_branch2a
I0705 13:49:19.905529  8758 net.cpp:106] Creating Layer scale4a_branch2a
I0705 13:49:19.905531  8758 net.cpp:454] scale4a_branch2a <- res4a_branch2a
I0705 13:49:19.905535  8758 net.cpp:397] scale4a_branch2a -> res4a_branch2a (in-place)
I0705 13:49:19.905576  8758 layer_factory.hpp:77] Creating layer scale4a_branch2a
I0705 13:49:19.905696  8758 net.cpp:150] Setting up scale4a_branch2a
I0705 13:49:19.905704  8758 net.cpp:157] Top shape: 1 256 38 63 (612864)
I0705 13:49:19.905706  8758 net.cpp:165] Memory required for data: 2141571924
I0705 13:49:19.905711  8758 layer_factory.hpp:77] Creating layer res4a_branch2a_relu
I0705 13:49:19.905716  8758 net.cpp:106] Creating Layer res4a_branch2a_relu
I0705 13:49:19.905720  8758 net.cpp:454] res4a_branch2a_relu <- res4a_branch2a
I0705 13:49:19.905726  8758 net.cpp:397] res4a_branch2a_relu -> res4a_branch2a (in-place)
I0705 13:49:19.905915  8758 net.cpp:150] Setting up res4a_branch2a_relu
I0705 13:49:19.905926  8758 net.cpp:157] Top shape: 1 256 38 63 (612864)
I0705 13:49:19.905928  8758 net.cpp:165] Memory required for data: 2144023380
I0705 13:49:19.905932  8758 layer_factory.hpp:77] Creating layer res4a_branch2b
I0705 13:49:19.905941  8758 net.cpp:106] Creating Layer res4a_branch2b
I0705 13:49:19.905943  8758 net.cpp:454] res4a_branch2b <- res4a_branch2a
I0705 13:49:19.905948  8758 net.cpp:411] res4a_branch2b -> res4a_branch2b
I0705 13:49:19.908701  8758 net.cpp:150] Setting up res4a_branch2b
I0705 13:49:19.908715  8758 net.cpp:157] Top shape: 1 256 38 63 (612864)
I0705 13:49:19.908730  8758 net.cpp:165] Memory required for data: 2146474836
I0705 13:49:19.908735  8758 layer_factory.hpp:77] Creating layer bn4a_branch2b
I0705 13:49:19.908743  8758 net.cpp:106] Creating Layer bn4a_branch2b
I0705 13:49:19.908747  8758 net.cpp:454] bn4a_branch2b <- res4a_branch2b
I0705 13:49:19.908752  8758 net.cpp:397] bn4a_branch2b -> res4a_branch2b (in-place)
I0705 13:49:19.908960  8758 net.cpp:150] Setting up bn4a_branch2b
I0705 13:49:19.908969  8758 net.cpp:157] Top shape: 1 256 38 63 (612864)
I0705 13:49:19.908972  8758 net.cpp:165] Memory required for data: 2148926292
I0705 13:49:19.908978  8758 layer_factory.hpp:77] Creating layer scale4a_branch2b
I0705 13:49:19.908984  8758 net.cpp:106] Creating Layer scale4a_branch2b
I0705 13:49:19.908987  8758 net.cpp:454] scale4a_branch2b <- res4a_branch2b
I0705 13:49:19.908991  8758 net.cpp:397] scale4a_branch2b -> res4a_branch2b (in-place)
I0705 13:49:19.909034  8758 layer_factory.hpp:77] Creating layer scale4a_branch2b
I0705 13:49:19.909152  8758 net.cpp:150] Setting up scale4a_branch2b
I0705 13:49:19.909159  8758 net.cpp:157] Top shape: 1 256 38 63 (612864)
I0705 13:49:19.909162  8758 net.cpp:165] Memory required for data: 2151377748
I0705 13:49:19.909168  8758 layer_factory.hpp:77] Creating layer res4a_branch2b_relu
I0705 13:49:19.909173  8758 net.cpp:106] Creating Layer res4a_branch2b_relu
I0705 13:49:19.909176  8758 net.cpp:454] res4a_branch2b_relu <- res4a_branch2b
I0705 13:49:19.909181  8758 net.cpp:397] res4a_branch2b_relu -> res4a_branch2b (in-place)
I0705 13:49:19.909375  8758 net.cpp:150] Setting up res4a_branch2b_relu
I0705 13:49:19.909386  8758 net.cpp:157] Top shape: 1 256 38 63 (612864)
I0705 13:49:19.909389  8758 net.cpp:165] Memory required for data: 2153829204
I0705 13:49:19.909392  8758 layer_factory.hpp:77] Creating layer res4a_branch2c
I0705 13:49:19.909401  8758 net.cpp:106] Creating Layer res4a_branch2c
I0705 13:49:19.909404  8758 net.cpp:454] res4a_branch2c <- res4a_branch2b
I0705 13:49:19.909409  8758 net.cpp:411] res4a_branch2c -> res4a_branch2c
I0705 13:49:19.910734  8758 net.cpp:150] Setting up res4a_branch2c
I0705 13:49:19.910748  8758 net.cpp:157] Top shape: 1 1024 38 63 (2451456)
I0705 13:49:19.910751  8758 net.cpp:165] Memory required for data: 2163635028
I0705 13:49:19.910756  8758 layer_factory.hpp:77] Creating layer bn4a_branch2c
I0705 13:49:19.910765  8758 net.cpp:106] Creating Layer bn4a_branch2c
I0705 13:49:19.910769  8758 net.cpp:454] bn4a_branch2c <- res4a_branch2c
I0705 13:49:19.910774  8758 net.cpp:397] bn4a_branch2c -> res4a_branch2c (in-place)
I0705 13:49:19.910977  8758 net.cpp:150] Setting up bn4a_branch2c
I0705 13:49:19.910986  8758 net.cpp:157] Top shape: 1 1024 38 63 (2451456)
I0705 13:49:19.910989  8758 net.cpp:165] Memory required for data: 2173440852
I0705 13:49:19.910996  8758 layer_factory.hpp:77] Creating layer scale4a_branch2c
I0705 13:49:19.911003  8758 net.cpp:106] Creating Layer scale4a_branch2c
I0705 13:49:19.911007  8758 net.cpp:454] scale4a_branch2c <- res4a_branch2c
I0705 13:49:19.911011  8758 net.cpp:397] scale4a_branch2c -> res4a_branch2c (in-place)
I0705 13:49:19.911051  8758 layer_factory.hpp:77] Creating layer scale4a_branch2c
I0705 13:49:19.911175  8758 net.cpp:150] Setting up scale4a_branch2c
I0705 13:49:19.911183  8758 net.cpp:157] Top shape: 1 1024 38 63 (2451456)
I0705 13:49:19.911185  8758 net.cpp:165] Memory required for data: 2183246676
I0705 13:49:19.911191  8758 layer_factory.hpp:77] Creating layer res4a
I0705 13:49:19.911209  8758 net.cpp:106] Creating Layer res4a
I0705 13:49:19.911214  8758 net.cpp:454] res4a <- res4a_branch1
I0705 13:49:19.911219  8758 net.cpp:454] res4a <- res4a_branch2c
I0705 13:49:19.911223  8758 net.cpp:411] res4a -> res4a
I0705 13:49:19.911249  8758 net.cpp:150] Setting up res4a
I0705 13:49:19.911257  8758 net.cpp:157] Top shape: 1 1024 38 63 (2451456)
I0705 13:49:19.911259  8758 net.cpp:165] Memory required for data: 2193052500
I0705 13:49:19.911263  8758 layer_factory.hpp:77] Creating layer res4a_relu
I0705 13:49:19.911268  8758 net.cpp:106] Creating Layer res4a_relu
I0705 13:49:19.911272  8758 net.cpp:454] res4a_relu <- res4a
I0705 13:49:19.911275  8758 net.cpp:397] res4a_relu -> res4a (in-place)
I0705 13:49:19.911839  8758 net.cpp:150] Setting up res4a_relu
I0705 13:49:19.911852  8758 net.cpp:157] Top shape: 1 1024 38 63 (2451456)
I0705 13:49:19.911866  8758 net.cpp:165] Memory required for data: 2202858324
I0705 13:49:19.911870  8758 layer_factory.hpp:77] Creating layer res4a_res4a_relu_0_split
I0705 13:49:19.911876  8758 net.cpp:106] Creating Layer res4a_res4a_relu_0_split
I0705 13:49:19.911880  8758 net.cpp:454] res4a_res4a_relu_0_split <- res4a
I0705 13:49:19.911896  8758 net.cpp:411] res4a_res4a_relu_0_split -> res4a_res4a_relu_0_split_0
I0705 13:49:19.911904  8758 net.cpp:411] res4a_res4a_relu_0_split -> res4a_res4a_relu_0_split_1
I0705 13:49:19.911950  8758 net.cpp:150] Setting up res4a_res4a_relu_0_split
I0705 13:49:19.911957  8758 net.cpp:157] Top shape: 1 1024 38 63 (2451456)
I0705 13:49:19.911962  8758 net.cpp:157] Top shape: 1 1024 38 63 (2451456)
I0705 13:49:19.911963  8758 net.cpp:165] Memory required for data: 2222469972
I0705 13:49:19.911967  8758 layer_factory.hpp:77] Creating layer res4b_branch2a
I0705 13:49:19.911975  8758 net.cpp:106] Creating Layer res4b_branch2a
I0705 13:49:19.911978  8758 net.cpp:454] res4b_branch2a <- res4a_res4a_relu_0_split_0
I0705 13:49:19.911984  8758 net.cpp:411] res4b_branch2a -> res4b_branch2a
I0705 13:49:19.913797  8758 net.cpp:150] Setting up res4b_branch2a
I0705 13:49:19.913825  8758 net.cpp:157] Top shape: 1 256 38 63 (612864)
I0705 13:49:19.913828  8758 net.cpp:165] Memory required for data: 2224921428
I0705 13:49:19.913833  8758 layer_factory.hpp:77] Creating layer bn4b_branch2a
I0705 13:49:19.913841  8758 net.cpp:106] Creating Layer bn4b_branch2a
I0705 13:49:19.913843  8758 net.cpp:454] bn4b_branch2a <- res4b_branch2a
I0705 13:49:19.913849  8758 net.cpp:397] bn4b_branch2a -> res4b_branch2a (in-place)
I0705 13:49:19.914052  8758 net.cpp:150] Setting up bn4b_branch2a
I0705 13:49:19.914060  8758 net.cpp:157] Top shape: 1 256 38 63 (612864)
I0705 13:49:19.914063  8758 net.cpp:165] Memory required for data: 2227372884
I0705 13:49:19.914069  8758 layer_factory.hpp:77] Creating layer scale4b_branch2a
I0705 13:49:19.914075  8758 net.cpp:106] Creating Layer scale4b_branch2a
I0705 13:49:19.914078  8758 net.cpp:454] scale4b_branch2a <- res4b_branch2a
I0705 13:49:19.914083  8758 net.cpp:397] scale4b_branch2a -> res4b_branch2a (in-place)
I0705 13:49:19.914122  8758 layer_factory.hpp:77] Creating layer scale4b_branch2a
I0705 13:49:19.914240  8758 net.cpp:150] Setting up scale4b_branch2a
I0705 13:49:19.914248  8758 net.cpp:157] Top shape: 1 256 38 63 (612864)
I0705 13:49:19.914252  8758 net.cpp:165] Memory required for data: 2229824340
I0705 13:49:19.914257  8758 layer_factory.hpp:77] Creating layer res4b_branch2a_relu
I0705 13:49:19.914263  8758 net.cpp:106] Creating Layer res4b_branch2a_relu
I0705 13:49:19.914266  8758 net.cpp:454] res4b_branch2a_relu <- res4b_branch2a
I0705 13:49:19.914270  8758 net.cpp:397] res4b_branch2a_relu -> res4b_branch2a (in-place)
I0705 13:49:19.914836  8758 net.cpp:150] Setting up res4b_branch2a_relu
I0705 13:49:19.914849  8758 net.cpp:157] Top shape: 1 256 38 63 (612864)
I0705 13:49:19.914865  8758 net.cpp:165] Memory required for data: 2232275796
I0705 13:49:19.914867  8758 layer_factory.hpp:77] Creating layer res4b_branch2b
I0705 13:49:19.914876  8758 net.cpp:106] Creating Layer res4b_branch2b
I0705 13:49:19.914880  8758 net.cpp:454] res4b_branch2b <- res4b_branch2a
I0705 13:49:19.914886  8758 net.cpp:411] res4b_branch2b -> res4b_branch2b
I0705 13:49:19.917754  8758 net.cpp:150] Setting up res4b_branch2b
I0705 13:49:19.917768  8758 net.cpp:157] Top shape: 1 256 38 63 (612864)
I0705 13:49:19.917783  8758 net.cpp:165] Memory required for data: 2234727252
I0705 13:49:19.917790  8758 layer_factory.hpp:77] Creating layer bn4b_branch2b
I0705 13:49:19.917796  8758 net.cpp:106] Creating Layer bn4b_branch2b
I0705 13:49:19.917799  8758 net.cpp:454] bn4b_branch2b <- res4b_branch2b
I0705 13:49:19.917804  8758 net.cpp:397] bn4b_branch2b -> res4b_branch2b (in-place)
I0705 13:49:19.918016  8758 net.cpp:150] Setting up bn4b_branch2b
I0705 13:49:19.918025  8758 net.cpp:157] Top shape: 1 256 38 63 (612864)
I0705 13:49:19.918027  8758 net.cpp:165] Memory required for data: 2237178708
I0705 13:49:19.918035  8758 layer_factory.hpp:77] Creating layer scale4b_branch2b
I0705 13:49:19.918041  8758 net.cpp:106] Creating Layer scale4b_branch2b
I0705 13:49:19.918045  8758 net.cpp:454] scale4b_branch2b <- res4b_branch2b
I0705 13:49:19.918051  8758 net.cpp:397] scale4b_branch2b -> res4b_branch2b (in-place)
I0705 13:49:19.918092  8758 layer_factory.hpp:77] Creating layer scale4b_branch2b
I0705 13:49:19.918213  8758 net.cpp:150] Setting up scale4b_branch2b
I0705 13:49:19.918221  8758 net.cpp:157] Top shape: 1 256 38 63 (612864)
I0705 13:49:19.918223  8758 net.cpp:165] Memory required for data: 2239630164
I0705 13:49:19.918229  8758 layer_factory.hpp:77] Creating layer res4b_branch2b_relu
I0705 13:49:19.918236  8758 net.cpp:106] Creating Layer res4b_branch2b_relu
I0705 13:49:19.918239  8758 net.cpp:454] res4b_branch2b_relu <- res4b_branch2b
I0705 13:49:19.918243  8758 net.cpp:397] res4b_branch2b_relu -> res4b_branch2b (in-place)
I0705 13:49:19.918447  8758 net.cpp:150] Setting up res4b_branch2b_relu
I0705 13:49:19.918462  8758 net.cpp:157] Top shape: 1 256 38 63 (612864)
I0705 13:49:19.918464  8758 net.cpp:165] Memory required for data: 2242081620
I0705 13:49:19.918468  8758 layer_factory.hpp:77] Creating layer res4b_branch2c
I0705 13:49:19.918475  8758 net.cpp:106] Creating Layer res4b_branch2c
I0705 13:49:19.918479  8758 net.cpp:454] res4b_branch2c <- res4b_branch2b
I0705 13:49:19.918485  8758 net.cpp:411] res4b_branch2c -> res4b_branch2c
I0705 13:49:19.920037  8758 net.cpp:150] Setting up res4b_branch2c
I0705 13:49:19.920048  8758 net.cpp:157] Top shape: 1 1024 38 63 (2451456)
I0705 13:49:19.920063  8758 net.cpp:165] Memory required for data: 2251887444
I0705 13:49:19.920068  8758 layer_factory.hpp:77] Creating layer bn4b_branch2c
I0705 13:49:19.920074  8758 net.cpp:106] Creating Layer bn4b_branch2c
I0705 13:49:19.920078  8758 net.cpp:454] bn4b_branch2c <- res4b_branch2c
I0705 13:49:19.920083  8758 net.cpp:397] bn4b_branch2c -> res4b_branch2c (in-place)
I0705 13:49:19.920305  8758 net.cpp:150] Setting up bn4b_branch2c
I0705 13:49:19.920312  8758 net.cpp:157] Top shape: 1 1024 38 63 (2451456)
I0705 13:49:19.920315  8758 net.cpp:165] Memory required for data: 2261693268
I0705 13:49:19.920321  8758 layer_factory.hpp:77] Creating layer scale4b_branch2c
I0705 13:49:19.920327  8758 net.cpp:106] Creating Layer scale4b_branch2c
I0705 13:49:19.920331  8758 net.cpp:454] scale4b_branch2c <- res4b_branch2c
I0705 13:49:19.920334  8758 net.cpp:397] scale4b_branch2c -> res4b_branch2c (in-place)
I0705 13:49:19.920374  8758 layer_factory.hpp:77] Creating layer scale4b_branch2c
I0705 13:49:19.920500  8758 net.cpp:150] Setting up scale4b_branch2c
I0705 13:49:19.920507  8758 net.cpp:157] Top shape: 1 1024 38 63 (2451456)
I0705 13:49:19.920511  8758 net.cpp:165] Memory required for data: 2271499092
I0705 13:49:19.920516  8758 layer_factory.hpp:77] Creating layer res4b
I0705 13:49:19.920521  8758 net.cpp:106] Creating Layer res4b
I0705 13:49:19.920524  8758 net.cpp:454] res4b <- res4a_res4a_relu_0_split_1
I0705 13:49:19.920529  8758 net.cpp:454] res4b <- res4b_branch2c
I0705 13:49:19.920533  8758 net.cpp:411] res4b -> res4b
I0705 13:49:19.920559  8758 net.cpp:150] Setting up res4b
I0705 13:49:19.920565  8758 net.cpp:157] Top shape: 1 1024 38 63 (2451456)
I0705 13:49:19.920568  8758 net.cpp:165] Memory required for data: 2281304916
I0705 13:49:19.920572  8758 layer_factory.hpp:77] Creating layer res4b_relu
I0705 13:49:19.920575  8758 net.cpp:106] Creating Layer res4b_relu
I0705 13:49:19.920578  8758 net.cpp:454] res4b_relu <- res4b
I0705 13:49:19.920584  8758 net.cpp:397] res4b_relu -> res4b (in-place)
I0705 13:49:19.920795  8758 net.cpp:150] Setting up res4b_relu
I0705 13:49:19.920806  8758 net.cpp:157] Top shape: 1 1024 38 63 (2451456)
I0705 13:49:19.920809  8758 net.cpp:165] Memory required for data: 2291110740
I0705 13:49:19.920812  8758 layer_factory.hpp:77] Creating layer res4b_res4b_relu_0_split
I0705 13:49:19.920817  8758 net.cpp:106] Creating Layer res4b_res4b_relu_0_split
I0705 13:49:19.920820  8758 net.cpp:454] res4b_res4b_relu_0_split <- res4b
I0705 13:49:19.920827  8758 net.cpp:411] res4b_res4b_relu_0_split -> res4b_res4b_relu_0_split_0
I0705 13:49:19.920833  8758 net.cpp:411] res4b_res4b_relu_0_split -> res4b_res4b_relu_0_split_1
I0705 13:49:19.920883  8758 net.cpp:150] Setting up res4b_res4b_relu_0_split
I0705 13:49:19.920891  8758 net.cpp:157] Top shape: 1 1024 38 63 (2451456)
I0705 13:49:19.920893  8758 net.cpp:157] Top shape: 1 1024 38 63 (2451456)
I0705 13:49:19.920897  8758 net.cpp:165] Memory required for data: 2310722388
I0705 13:49:19.920899  8758 layer_factory.hpp:77] Creating layer res4c_branch2a
I0705 13:49:19.920907  8758 net.cpp:106] Creating Layer res4c_branch2a
I0705 13:49:19.920910  8758 net.cpp:454] res4c_branch2a <- res4b_res4b_relu_0_split_0
I0705 13:49:19.920915  8758 net.cpp:411] res4c_branch2a -> res4c_branch2a
I0705 13:49:19.923076  8758 net.cpp:150] Setting up res4c_branch2a
I0705 13:49:19.923090  8758 net.cpp:157] Top shape: 1 256 38 63 (612864)
I0705 13:49:19.923102  8758 net.cpp:165] Memory required for data: 2313173844
I0705 13:49:19.923107  8758 layer_factory.hpp:77] Creating layer bn4c_branch2a
I0705 13:49:19.923115  8758 net.cpp:106] Creating Layer bn4c_branch2a
I0705 13:49:19.923118  8758 net.cpp:454] bn4c_branch2a <- res4c_branch2a
I0705 13:49:19.923132  8758 net.cpp:397] bn4c_branch2a -> res4c_branch2a (in-place)
I0705 13:49:19.923354  8758 net.cpp:150] Setting up bn4c_branch2a
I0705 13:49:19.923362  8758 net.cpp:157] Top shape: 1 256 38 63 (612864)
I0705 13:49:19.923365  8758 net.cpp:165] Memory required for data: 2315625300
I0705 13:49:19.923372  8758 layer_factory.hpp:77] Creating layer scale4c_branch2a
I0705 13:49:19.923377  8758 net.cpp:106] Creating Layer scale4c_branch2a
I0705 13:49:19.923380  8758 net.cpp:454] scale4c_branch2a <- res4c_branch2a
I0705 13:49:19.923385  8758 net.cpp:397] scale4c_branch2a -> res4c_branch2a (in-place)
I0705 13:49:19.923440  8758 layer_factory.hpp:77] Creating layer scale4c_branch2a
I0705 13:49:19.923559  8758 net.cpp:150] Setting up scale4c_branch2a
I0705 13:49:19.923568  8758 net.cpp:157] Top shape: 1 256 38 63 (612864)
I0705 13:49:19.923583  8758 net.cpp:165] Memory required for data: 2318076756
I0705 13:49:19.923588  8758 layer_factory.hpp:77] Creating layer res4c_branch2a_relu
I0705 13:49:19.923593  8758 net.cpp:106] Creating Layer res4c_branch2a_relu
I0705 13:49:19.923595  8758 net.cpp:454] res4c_branch2a_relu <- res4c_branch2a
I0705 13:49:19.923601  8758 net.cpp:397] res4c_branch2a_relu -> res4c_branch2a (in-place)
I0705 13:49:19.923796  8758 net.cpp:150] Setting up res4c_branch2a_relu
I0705 13:49:19.923807  8758 net.cpp:157] Top shape: 1 256 38 63 (612864)
I0705 13:49:19.923810  8758 net.cpp:165] Memory required for data: 2320528212
I0705 13:49:19.923813  8758 layer_factory.hpp:77] Creating layer res4c_branch2b
I0705 13:49:19.923822  8758 net.cpp:106] Creating Layer res4c_branch2b
I0705 13:49:19.923825  8758 net.cpp:454] res4c_branch2b <- res4c_branch2a
I0705 13:49:19.923831  8758 net.cpp:411] res4c_branch2b -> res4c_branch2b
I0705 13:49:19.926548  8758 net.cpp:150] Setting up res4c_branch2b
I0705 13:49:19.926573  8758 net.cpp:157] Top shape: 1 256 38 63 (612864)
I0705 13:49:19.926578  8758 net.cpp:165] Memory required for data: 2322979668
I0705 13:49:19.926582  8758 layer_factory.hpp:77] Creating layer bn4c_branch2b
I0705 13:49:19.926589  8758 net.cpp:106] Creating Layer bn4c_branch2b
I0705 13:49:19.926592  8758 net.cpp:454] bn4c_branch2b <- res4c_branch2b
I0705 13:49:19.926599  8758 net.cpp:397] bn4c_branch2b -> res4c_branch2b (in-place)
I0705 13:49:19.926813  8758 net.cpp:150] Setting up bn4c_branch2b
I0705 13:49:19.926822  8758 net.cpp:157] Top shape: 1 256 38 63 (612864)
I0705 13:49:19.926826  8758 net.cpp:165] Memory required for data: 2325431124
I0705 13:49:19.926832  8758 layer_factory.hpp:77] Creating layer scale4c_branch2b
I0705 13:49:19.926838  8758 net.cpp:106] Creating Layer scale4c_branch2b
I0705 13:49:19.926841  8758 net.cpp:454] scale4c_branch2b <- res4c_branch2b
I0705 13:49:19.926846  8758 net.cpp:397] scale4c_branch2b -> res4c_branch2b (in-place)
I0705 13:49:19.926887  8758 layer_factory.hpp:77] Creating layer scale4c_branch2b
I0705 13:49:19.927013  8758 net.cpp:150] Setting up scale4c_branch2b
I0705 13:49:19.927021  8758 net.cpp:157] Top shape: 1 256 38 63 (612864)
I0705 13:49:19.927023  8758 net.cpp:165] Memory required for data: 2327882580
I0705 13:49:19.927028  8758 layer_factory.hpp:77] Creating layer res4c_branch2b_relu
I0705 13:49:19.927036  8758 net.cpp:106] Creating Layer res4c_branch2b_relu
I0705 13:49:19.927038  8758 net.cpp:454] res4c_branch2b_relu <- res4c_branch2b
I0705 13:49:19.927042  8758 net.cpp:397] res4c_branch2b_relu -> res4c_branch2b (in-place)
I0705 13:49:19.927242  8758 net.cpp:150] Setting up res4c_branch2b_relu
I0705 13:49:19.927253  8758 net.cpp:157] Top shape: 1 256 38 63 (612864)
I0705 13:49:19.927255  8758 net.cpp:165] Memory required for data: 2330334036
I0705 13:49:19.927258  8758 layer_factory.hpp:77] Creating layer res4c_branch2c
I0705 13:49:19.927268  8758 net.cpp:106] Creating Layer res4c_branch2c
I0705 13:49:19.927270  8758 net.cpp:454] res4c_branch2c <- res4c_branch2b
I0705 13:49:19.927278  8758 net.cpp:411] res4c_branch2c -> res4c_branch2c
I0705 13:49:19.928529  8758 net.cpp:150] Setting up res4c_branch2c
I0705 13:49:19.928542  8758 net.cpp:157] Top shape: 1 1024 38 63 (2451456)
I0705 13:49:19.928555  8758 net.cpp:165] Memory required for data: 2340139860
I0705 13:49:19.928560  8758 layer_factory.hpp:77] Creating layer bn4c_branch2c
I0705 13:49:19.928567  8758 net.cpp:106] Creating Layer bn4c_branch2c
I0705 13:49:19.928571  8758 net.cpp:454] bn4c_branch2c <- res4c_branch2c
I0705 13:49:19.928587  8758 net.cpp:397] bn4c_branch2c -> res4c_branch2c (in-place)
I0705 13:49:19.928799  8758 net.cpp:150] Setting up bn4c_branch2c
I0705 13:49:19.928808  8758 net.cpp:157] Top shape: 1 1024 38 63 (2451456)
I0705 13:49:19.928810  8758 net.cpp:165] Memory required for data: 2349945684
I0705 13:49:19.928817  8758 layer_factory.hpp:77] Creating layer scale4c_branch2c
I0705 13:49:19.928824  8758 net.cpp:106] Creating Layer scale4c_branch2c
I0705 13:49:19.928828  8758 net.cpp:454] scale4c_branch2c <- res4c_branch2c
I0705 13:49:19.928833  8758 net.cpp:397] scale4c_branch2c -> res4c_branch2c (in-place)
I0705 13:49:19.928874  8758 layer_factory.hpp:77] Creating layer scale4c_branch2c
I0705 13:49:19.929003  8758 net.cpp:150] Setting up scale4c_branch2c
I0705 13:49:19.929010  8758 net.cpp:157] Top shape: 1 1024 38 63 (2451456)
I0705 13:49:19.929013  8758 net.cpp:165] Memory required for data: 2359751508
I0705 13:49:19.929018  8758 layer_factory.hpp:77] Creating layer res4c
I0705 13:49:19.929025  8758 net.cpp:106] Creating Layer res4c
I0705 13:49:19.929028  8758 net.cpp:454] res4c <- res4b_res4b_relu_0_split_1
I0705 13:49:19.929033  8758 net.cpp:454] res4c <- res4c_branch2c
I0705 13:49:19.929039  8758 net.cpp:411] res4c -> res4c
I0705 13:49:19.929064  8758 net.cpp:150] Setting up res4c
I0705 13:49:19.929071  8758 net.cpp:157] Top shape: 1 1024 38 63 (2451456)
I0705 13:49:19.929074  8758 net.cpp:165] Memory required for data: 2369557332
I0705 13:49:19.929076  8758 layer_factory.hpp:77] Creating layer res4c_relu
I0705 13:49:19.929082  8758 net.cpp:106] Creating Layer res4c_relu
I0705 13:49:19.929085  8758 net.cpp:454] res4c_relu <- res4c
I0705 13:49:19.929090  8758 net.cpp:397] res4c_relu -> res4c (in-place)
I0705 13:49:19.929651  8758 net.cpp:150] Setting up res4c_relu
I0705 13:49:19.929663  8758 net.cpp:157] Top shape: 1 1024 38 63 (2451456)
I0705 13:49:19.929677  8758 net.cpp:165] Memory required for data: 2379363156
I0705 13:49:19.929680  8758 layer_factory.hpp:77] Creating layer res4c_res4c_relu_0_split
I0705 13:49:19.929687  8758 net.cpp:106] Creating Layer res4c_res4c_relu_0_split
I0705 13:49:19.929690  8758 net.cpp:454] res4c_res4c_relu_0_split <- res4c
I0705 13:49:19.929695  8758 net.cpp:411] res4c_res4c_relu_0_split -> res4c_res4c_relu_0_split_0
I0705 13:49:19.929715  8758 net.cpp:411] res4c_res4c_relu_0_split -> res4c_res4c_relu_0_split_1
I0705 13:49:19.929761  8758 net.cpp:150] Setting up res4c_res4c_relu_0_split
I0705 13:49:19.929769  8758 net.cpp:157] Top shape: 1 1024 38 63 (2451456)
I0705 13:49:19.929772  8758 net.cpp:157] Top shape: 1 1024 38 63 (2451456)
I0705 13:49:19.929774  8758 net.cpp:165] Memory required for data: 2398974804
I0705 13:49:19.929777  8758 layer_factory.hpp:77] Creating layer res4d_branch2a
I0705 13:49:19.929785  8758 net.cpp:106] Creating Layer res4d_branch2a
I0705 13:49:19.929788  8758 net.cpp:454] res4d_branch2a <- res4c_res4c_relu_0_split_0
I0705 13:49:19.929795  8758 net.cpp:411] res4d_branch2a -> res4d_branch2a
I0705 13:49:19.931601  8758 net.cpp:150] Setting up res4d_branch2a
I0705 13:49:19.931614  8758 net.cpp:157] Top shape: 1 256 38 63 (612864)
I0705 13:49:19.931627  8758 net.cpp:165] Memory required for data: 2401426260
I0705 13:49:19.931632  8758 layer_factory.hpp:77] Creating layer bn4d_branch2a
I0705 13:49:19.931639  8758 net.cpp:106] Creating Layer bn4d_branch2a
I0705 13:49:19.931643  8758 net.cpp:454] bn4d_branch2a <- res4d_branch2a
I0705 13:49:19.931648  8758 net.cpp:397] bn4d_branch2a -> res4d_branch2a (in-place)
I0705 13:49:19.931867  8758 net.cpp:150] Setting up bn4d_branch2a
I0705 13:49:19.931875  8758 net.cpp:157] Top shape: 1 256 38 63 (612864)
I0705 13:49:19.931877  8758 net.cpp:165] Memory required for data: 2403877716
I0705 13:49:19.931885  8758 layer_factory.hpp:77] Creating layer scale4d_branch2a
I0705 13:49:19.931890  8758 net.cpp:106] Creating Layer scale4d_branch2a
I0705 13:49:19.931895  8758 net.cpp:454] scale4d_branch2a <- res4d_branch2a
I0705 13:49:19.931898  8758 net.cpp:397] scale4d_branch2a -> res4d_branch2a (in-place)
I0705 13:49:19.931938  8758 layer_factory.hpp:77] Creating layer scale4d_branch2a
I0705 13:49:19.932062  8758 net.cpp:150] Setting up scale4d_branch2a
I0705 13:49:19.932070  8758 net.cpp:157] Top shape: 1 256 38 63 (612864)
I0705 13:49:19.932072  8758 net.cpp:165] Memory required for data: 2406329172
I0705 13:49:19.932077  8758 layer_factory.hpp:77] Creating layer res4d_branch2a_relu
I0705 13:49:19.932083  8758 net.cpp:106] Creating Layer res4d_branch2a_relu
I0705 13:49:19.932087  8758 net.cpp:454] res4d_branch2a_relu <- res4d_branch2a
I0705 13:49:19.932091  8758 net.cpp:397] res4d_branch2a_relu -> res4d_branch2a (in-place)
I0705 13:49:19.932660  8758 net.cpp:150] Setting up res4d_branch2a_relu
I0705 13:49:19.932673  8758 net.cpp:157] Top shape: 1 256 38 63 (612864)
I0705 13:49:19.932687  8758 net.cpp:165] Memory required for data: 2408780628
I0705 13:49:19.932689  8758 layer_factory.hpp:77] Creating layer res4d_branch2b
I0705 13:49:19.932698  8758 net.cpp:106] Creating Layer res4d_branch2b
I0705 13:49:19.932713  8758 net.cpp:454] res4d_branch2b <- res4d_branch2a
I0705 13:49:19.932718  8758 net.cpp:411] res4d_branch2b -> res4d_branch2b
I0705 13:49:19.935418  8758 net.cpp:150] Setting up res4d_branch2b
I0705 13:49:19.935432  8758 net.cpp:157] Top shape: 1 256 38 63 (612864)
I0705 13:49:19.935446  8758 net.cpp:165] Memory required for data: 2411232084
I0705 13:49:19.935451  8758 layer_factory.hpp:77] Creating layer bn4d_branch2b
I0705 13:49:19.935457  8758 net.cpp:106] Creating Layer bn4d_branch2b
I0705 13:49:19.935472  8758 net.cpp:454] bn4d_branch2b <- res4d_branch2b
I0705 13:49:19.935477  8758 net.cpp:397] bn4d_branch2b -> res4d_branch2b (in-place)
I0705 13:49:19.935711  8758 net.cpp:150] Setting up bn4d_branch2b
I0705 13:49:19.935720  8758 net.cpp:157] Top shape: 1 256 38 63 (612864)
I0705 13:49:19.935722  8758 net.cpp:165] Memory required for data: 2413683540
I0705 13:49:19.935729  8758 layer_factory.hpp:77] Creating layer scale4d_branch2b
I0705 13:49:19.935735  8758 net.cpp:106] Creating Layer scale4d_branch2b
I0705 13:49:19.935739  8758 net.cpp:454] scale4d_branch2b <- res4d_branch2b
I0705 13:49:19.935745  8758 net.cpp:397] scale4d_branch2b -> res4d_branch2b (in-place)
I0705 13:49:19.935799  8758 layer_factory.hpp:77] Creating layer scale4d_branch2b
I0705 13:49:19.935925  8758 net.cpp:150] Setting up scale4d_branch2b
I0705 13:49:19.935932  8758 net.cpp:157] Top shape: 1 256 38 63 (612864)
I0705 13:49:19.935935  8758 net.cpp:165] Memory required for data: 2416134996
I0705 13:49:19.935940  8758 layer_factory.hpp:77] Creating layer res4d_branch2b_relu
I0705 13:49:19.935945  8758 net.cpp:106] Creating Layer res4d_branch2b_relu
I0705 13:49:19.935947  8758 net.cpp:454] res4d_branch2b_relu <- res4d_branch2b
I0705 13:49:19.935952  8758 net.cpp:397] res4d_branch2b_relu -> res4d_branch2b (in-place)
I0705 13:49:19.936147  8758 net.cpp:150] Setting up res4d_branch2b_relu
I0705 13:49:19.936157  8758 net.cpp:157] Top shape: 1 256 38 63 (612864)
I0705 13:49:19.936161  8758 net.cpp:165] Memory required for data: 2418586452
I0705 13:49:19.936164  8758 layer_factory.hpp:77] Creating layer res4d_branch2c
I0705 13:49:19.936172  8758 net.cpp:106] Creating Layer res4d_branch2c
I0705 13:49:19.936175  8758 net.cpp:454] res4d_branch2c <- res4d_branch2b
I0705 13:49:19.936180  8758 net.cpp:411] res4d_branch2c -> res4d_branch2c
I0705 13:49:19.937420  8758 net.cpp:150] Setting up res4d_branch2c
I0705 13:49:19.937433  8758 net.cpp:157] Top shape: 1 1024 38 63 (2451456)
I0705 13:49:19.937446  8758 net.cpp:165] Memory required for data: 2428392276
I0705 13:49:19.937451  8758 layer_factory.hpp:77] Creating layer bn4d_branch2c
I0705 13:49:19.937458  8758 net.cpp:106] Creating Layer bn4d_branch2c
I0705 13:49:19.937463  8758 net.cpp:454] bn4d_branch2c <- res4d_branch2c
I0705 13:49:19.937466  8758 net.cpp:397] bn4d_branch2c -> res4d_branch2c (in-place)
I0705 13:49:19.937700  8758 net.cpp:150] Setting up bn4d_branch2c
I0705 13:49:19.937708  8758 net.cpp:157] Top shape: 1 1024 38 63 (2451456)
I0705 13:49:19.937711  8758 net.cpp:165] Memory required for data: 2438198100
I0705 13:49:19.937718  8758 layer_factory.hpp:77] Creating layer scale4d_branch2c
I0705 13:49:19.937723  8758 net.cpp:106] Creating Layer scale4d_branch2c
I0705 13:49:19.937726  8758 net.cpp:454] scale4d_branch2c <- res4d_branch2c
I0705 13:49:19.937731  8758 net.cpp:397] scale4d_branch2c -> res4d_branch2c (in-place)
I0705 13:49:19.937774  8758 layer_factory.hpp:77] Creating layer scale4d_branch2c
I0705 13:49:19.937898  8758 net.cpp:150] Setting up scale4d_branch2c
I0705 13:49:19.937906  8758 net.cpp:157] Top shape: 1 1024 38 63 (2451456)
I0705 13:49:19.937908  8758 net.cpp:165] Memory required for data: 2448003924
I0705 13:49:19.937913  8758 layer_factory.hpp:77] Creating layer res4d
I0705 13:49:19.937919  8758 net.cpp:106] Creating Layer res4d
I0705 13:49:19.937923  8758 net.cpp:454] res4d <- res4c_res4c_relu_0_split_1
I0705 13:49:19.937927  8758 net.cpp:454] res4d <- res4d_branch2c
I0705 13:49:19.937932  8758 net.cpp:411] res4d -> res4d
I0705 13:49:19.937958  8758 net.cpp:150] Setting up res4d
I0705 13:49:19.937965  8758 net.cpp:157] Top shape: 1 1024 38 63 (2451456)
I0705 13:49:19.937968  8758 net.cpp:165] Memory required for data: 2457809748
I0705 13:49:19.937970  8758 layer_factory.hpp:77] Creating layer res4d_relu
I0705 13:49:19.937974  8758 net.cpp:106] Creating Layer res4d_relu
I0705 13:49:19.937978  8758 net.cpp:454] res4d_relu <- res4d
I0705 13:49:19.937983  8758 net.cpp:397] res4d_relu -> res4d (in-place)
I0705 13:49:19.938192  8758 net.cpp:150] Setting up res4d_relu
I0705 13:49:19.938203  8758 net.cpp:157] Top shape: 1 1024 38 63 (2451456)
I0705 13:49:19.938206  8758 net.cpp:165] Memory required for data: 2467615572
I0705 13:49:19.938210  8758 layer_factory.hpp:77] Creating layer res4d_res4d_relu_0_split
I0705 13:49:19.938215  8758 net.cpp:106] Creating Layer res4d_res4d_relu_0_split
I0705 13:49:19.938218  8758 net.cpp:454] res4d_res4d_relu_0_split <- res4d
I0705 13:49:19.938225  8758 net.cpp:411] res4d_res4d_relu_0_split -> res4d_res4d_relu_0_split_0
I0705 13:49:19.938230  8758 net.cpp:411] res4d_res4d_relu_0_split -> res4d_res4d_relu_0_split_1
I0705 13:49:19.938277  8758 net.cpp:150] Setting up res4d_res4d_relu_0_split
I0705 13:49:19.938284  8758 net.cpp:157] Top shape: 1 1024 38 63 (2451456)
I0705 13:49:19.938288  8758 net.cpp:157] Top shape: 1 1024 38 63 (2451456)
I0705 13:49:19.938290  8758 net.cpp:165] Memory required for data: 2487227220
I0705 13:49:19.938293  8758 layer_factory.hpp:77] Creating layer res4e_branch2a
I0705 13:49:19.938302  8758 net.cpp:106] Creating Layer res4e_branch2a
I0705 13:49:19.938304  8758 net.cpp:454] res4e_branch2a <- res4d_res4d_relu_0_split_0
I0705 13:49:19.938309  8758 net.cpp:411] res4e_branch2a -> res4e_branch2a
I0705 13:49:19.940531  8758 net.cpp:150] Setting up res4e_branch2a
I0705 13:49:19.940544  8758 net.cpp:157] Top shape: 1 256 38 63 (612864)
I0705 13:49:19.940558  8758 net.cpp:165] Memory required for data: 2489678676
I0705 13:49:19.940563  8758 layer_factory.hpp:77] Creating layer bn4e_branch2a
I0705 13:49:19.940570  8758 net.cpp:106] Creating Layer bn4e_branch2a
I0705 13:49:19.940574  8758 net.cpp:454] bn4e_branch2a <- res4e_branch2a
I0705 13:49:19.940579  8758 net.cpp:397] bn4e_branch2a -> res4e_branch2a (in-place)
I0705 13:49:19.940809  8758 net.cpp:150] Setting up bn4e_branch2a
I0705 13:49:19.940817  8758 net.cpp:157] Top shape: 1 256 38 63 (612864)
I0705 13:49:19.940820  8758 net.cpp:165] Memory required for data: 2492130132
I0705 13:49:19.940829  8758 layer_factory.hpp:77] Creating layer scale4e_branch2a
I0705 13:49:19.940834  8758 net.cpp:106] Creating Layer scale4e_branch2a
I0705 13:49:19.940837  8758 net.cpp:454] scale4e_branch2a <- res4e_branch2a
I0705 13:49:19.940842  8758 net.cpp:397] scale4e_branch2a -> res4e_branch2a (in-place)
I0705 13:49:19.940887  8758 layer_factory.hpp:77] Creating layer scale4e_branch2a
I0705 13:49:19.941013  8758 net.cpp:150] Setting up scale4e_branch2a
I0705 13:49:19.941020  8758 net.cpp:157] Top shape: 1 256 38 63 (612864)
I0705 13:49:19.941023  8758 net.cpp:165] Memory required for data: 2494581588
I0705 13:49:19.941028  8758 layer_factory.hpp:77] Creating layer res4e_branch2a_relu
I0705 13:49:19.941035  8758 net.cpp:106] Creating Layer res4e_branch2a_relu
I0705 13:49:19.941037  8758 net.cpp:454] res4e_branch2a_relu <- res4e_branch2a
I0705 13:49:19.941043  8758 net.cpp:397] res4e_branch2a_relu -> res4e_branch2a (in-place)
I0705 13:49:19.941241  8758 net.cpp:150] Setting up res4e_branch2a_relu
I0705 13:49:19.941251  8758 net.cpp:157] Top shape: 1 256 38 63 (612864)
I0705 13:49:19.941254  8758 net.cpp:165] Memory required for data: 2497033044
I0705 13:49:19.941257  8758 layer_factory.hpp:77] Creating layer res4e_branch2b
I0705 13:49:19.941265  8758 net.cpp:106] Creating Layer res4e_branch2b
I0705 13:49:19.941269  8758 net.cpp:454] res4e_branch2b <- res4e_branch2a
I0705 13:49:19.941275  8758 net.cpp:411] res4e_branch2b -> res4e_branch2b
I0705 13:49:19.944031  8758 net.cpp:150] Setting up res4e_branch2b
I0705 13:49:19.944056  8758 net.cpp:157] Top shape: 1 256 38 63 (612864)
I0705 13:49:19.944061  8758 net.cpp:165] Memory required for data: 2499484500
I0705 13:49:19.944066  8758 layer_factory.hpp:77] Creating layer bn4e_branch2b
I0705 13:49:19.944072  8758 net.cpp:106] Creating Layer bn4e_branch2b
I0705 13:49:19.944075  8758 net.cpp:454] bn4e_branch2b <- res4e_branch2b
I0705 13:49:19.944092  8758 net.cpp:397] bn4e_branch2b -> res4e_branch2b (in-place)
I0705 13:49:19.944317  8758 net.cpp:150] Setting up bn4e_branch2b
I0705 13:49:19.944326  8758 net.cpp:157] Top shape: 1 256 38 63 (612864)
I0705 13:49:19.944329  8758 net.cpp:165] Memory required for data: 2501935956
I0705 13:49:19.944335  8758 layer_factory.hpp:77] Creating layer scale4e_branch2b
I0705 13:49:19.944341  8758 net.cpp:106] Creating Layer scale4e_branch2b
I0705 13:49:19.944344  8758 net.cpp:454] scale4e_branch2b <- res4e_branch2b
I0705 13:49:19.944348  8758 net.cpp:397] scale4e_branch2b -> res4e_branch2b (in-place)
I0705 13:49:19.944416  8758 layer_factory.hpp:77] Creating layer scale4e_branch2b
I0705 13:49:19.944545  8758 net.cpp:150] Setting up scale4e_branch2b
I0705 13:49:19.944553  8758 net.cpp:157] Top shape: 1 256 38 63 (612864)
I0705 13:49:19.944556  8758 net.cpp:165] Memory required for data: 2504387412
I0705 13:49:19.944562  8758 layer_factory.hpp:77] Creating layer res4e_branch2b_relu
I0705 13:49:19.944567  8758 net.cpp:106] Creating Layer res4e_branch2b_relu
I0705 13:49:19.944571  8758 net.cpp:454] res4e_branch2b_relu <- res4e_branch2b
I0705 13:49:19.944574  8758 net.cpp:397] res4e_branch2b_relu -> res4e_branch2b (in-place)
I0705 13:49:19.944777  8758 net.cpp:150] Setting up res4e_branch2b_relu
I0705 13:49:19.944787  8758 net.cpp:157] Top shape: 1 256 38 63 (612864)
I0705 13:49:19.944789  8758 net.cpp:165] Memory required for data: 2506838868
I0705 13:49:19.944793  8758 layer_factory.hpp:77] Creating layer res4e_branch2c
I0705 13:49:19.944803  8758 net.cpp:106] Creating Layer res4e_branch2c
I0705 13:49:19.944806  8758 net.cpp:454] res4e_branch2c <- res4e_branch2b
I0705 13:49:19.944813  8758 net.cpp:411] res4e_branch2c -> res4e_branch2c
I0705 13:49:19.946120  8758 net.cpp:150] Setting up res4e_branch2c
I0705 13:49:19.946133  8758 net.cpp:157] Top shape: 1 1024 38 63 (2451456)
I0705 13:49:19.946148  8758 net.cpp:165] Memory required for data: 2516644692
I0705 13:49:19.946153  8758 layer_factory.hpp:77] Creating layer bn4e_branch2c
I0705 13:49:19.946161  8758 net.cpp:106] Creating Layer bn4e_branch2c
I0705 13:49:19.946164  8758 net.cpp:454] bn4e_branch2c <- res4e_branch2c
I0705 13:49:19.946169  8758 net.cpp:397] bn4e_branch2c -> res4e_branch2c (in-place)
I0705 13:49:19.946403  8758 net.cpp:150] Setting up bn4e_branch2c
I0705 13:49:19.946411  8758 net.cpp:157] Top shape: 1 1024 38 63 (2451456)
I0705 13:49:19.946414  8758 net.cpp:165] Memory required for data: 2526450516
I0705 13:49:19.946421  8758 layer_factory.hpp:77] Creating layer scale4e_branch2c
I0705 13:49:19.946429  8758 net.cpp:106] Creating Layer scale4e_branch2c
I0705 13:49:19.946431  8758 net.cpp:454] scale4e_branch2c <- res4e_branch2c
I0705 13:49:19.946436  8758 net.cpp:397] scale4e_branch2c -> res4e_branch2c (in-place)
I0705 13:49:19.946481  8758 layer_factory.hpp:77] Creating layer scale4e_branch2c
I0705 13:49:19.946617  8758 net.cpp:150] Setting up scale4e_branch2c
I0705 13:49:19.946625  8758 net.cpp:157] Top shape: 1 1024 38 63 (2451456)
I0705 13:49:19.946629  8758 net.cpp:165] Memory required for data: 2536256340
I0705 13:49:19.946633  8758 layer_factory.hpp:77] Creating layer res4e
I0705 13:49:19.946640  8758 net.cpp:106] Creating Layer res4e
I0705 13:49:19.946643  8758 net.cpp:454] res4e <- res4d_res4d_relu_0_split_1
I0705 13:49:19.946647  8758 net.cpp:454] res4e <- res4e_branch2c
I0705 13:49:19.946652  8758 net.cpp:411] res4e -> res4e
I0705 13:49:19.946681  8758 net.cpp:150] Setting up res4e
I0705 13:49:19.946687  8758 net.cpp:157] Top shape: 1 1024 38 63 (2451456)
I0705 13:49:19.946689  8758 net.cpp:165] Memory required for data: 2546062164
I0705 13:49:19.946692  8758 layer_factory.hpp:77] Creating layer res4e_relu
I0705 13:49:19.946698  8758 net.cpp:106] Creating Layer res4e_relu
I0705 13:49:19.946702  8758 net.cpp:454] res4e_relu <- res4e
I0705 13:49:19.946707  8758 net.cpp:397] res4e_relu -> res4e (in-place)
I0705 13:49:19.947293  8758 net.cpp:150] Setting up res4e_relu
I0705 13:49:19.947306  8758 net.cpp:157] Top shape: 1 1024 38 63 (2451456)
I0705 13:49:19.947319  8758 net.cpp:165] Memory required for data: 2555867988
I0705 13:49:19.947324  8758 layer_factory.hpp:77] Creating layer res4e_res4e_relu_0_split
I0705 13:49:19.947330  8758 net.cpp:106] Creating Layer res4e_res4e_relu_0_split
I0705 13:49:19.947333  8758 net.cpp:454] res4e_res4e_relu_0_split <- res4e
I0705 13:49:19.947350  8758 net.cpp:411] res4e_res4e_relu_0_split -> res4e_res4e_relu_0_split_0
I0705 13:49:19.947358  8758 net.cpp:411] res4e_res4e_relu_0_split -> res4e_res4e_relu_0_split_1
I0705 13:49:19.947407  8758 net.cpp:150] Setting up res4e_res4e_relu_0_split
I0705 13:49:19.947417  8758 net.cpp:157] Top shape: 1 1024 38 63 (2451456)
I0705 13:49:19.947420  8758 net.cpp:157] Top shape: 1 1024 38 63 (2451456)
I0705 13:49:19.947423  8758 net.cpp:165] Memory required for data: 2575479636
I0705 13:49:19.947427  8758 layer_factory.hpp:77] Creating layer res4f_branch2a
I0705 13:49:19.947432  8758 net.cpp:106] Creating Layer res4f_branch2a
I0705 13:49:19.947437  8758 net.cpp:454] res4f_branch2a <- res4e_res4e_relu_0_split_0
I0705 13:49:19.947443  8758 net.cpp:411] res4f_branch2a -> res4f_branch2a
I0705 13:49:19.949254  8758 net.cpp:150] Setting up res4f_branch2a
I0705 13:49:19.949266  8758 net.cpp:157] Top shape: 1 256 38 63 (612864)
I0705 13:49:19.949280  8758 net.cpp:165] Memory required for data: 2577931092
I0705 13:49:19.949285  8758 layer_factory.hpp:77] Creating layer bn4f_branch2a
I0705 13:49:19.949291  8758 net.cpp:106] Creating Layer bn4f_branch2a
I0705 13:49:19.949295  8758 net.cpp:454] bn4f_branch2a <- res4f_branch2a
I0705 13:49:19.949311  8758 net.cpp:397] bn4f_branch2a -> res4f_branch2a (in-place)
I0705 13:49:19.949528  8758 net.cpp:150] Setting up bn4f_branch2a
I0705 13:49:19.949537  8758 net.cpp:157] Top shape: 1 256 38 63 (612864)
I0705 13:49:19.949540  8758 net.cpp:165] Memory required for data: 2580382548
I0705 13:49:19.949546  8758 layer_factory.hpp:77] Creating layer scale4f_branch2a
I0705 13:49:19.949553  8758 net.cpp:106] Creating Layer scale4f_branch2a
I0705 13:49:19.949558  8758 net.cpp:454] scale4f_branch2a <- res4f_branch2a
I0705 13:49:19.949561  8758 net.cpp:397] scale4f_branch2a -> res4f_branch2a (in-place)
I0705 13:49:19.949606  8758 layer_factory.hpp:77] Creating layer scale4f_branch2a
I0705 13:49:19.949735  8758 net.cpp:150] Setting up scale4f_branch2a
I0705 13:49:19.949743  8758 net.cpp:157] Top shape: 1 256 38 63 (612864)
I0705 13:49:19.949745  8758 net.cpp:165] Memory required for data: 2582834004
I0705 13:49:19.949750  8758 layer_factory.hpp:77] Creating layer res4f_branch2a_relu
I0705 13:49:19.949757  8758 net.cpp:106] Creating Layer res4f_branch2a_relu
I0705 13:49:19.949760  8758 net.cpp:454] res4f_branch2a_relu <- res4f_branch2a
I0705 13:49:19.949764  8758 net.cpp:397] res4f_branch2a_relu -> res4f_branch2a (in-place)
I0705 13:49:19.950353  8758 net.cpp:150] Setting up res4f_branch2a_relu
I0705 13:49:19.950366  8758 net.cpp:157] Top shape: 1 256 38 63 (612864)
I0705 13:49:19.950387  8758 net.cpp:165] Memory required for data: 2585285460
I0705 13:49:19.950392  8758 layer_factory.hpp:77] Creating layer res4f_branch2b
I0705 13:49:19.950400  8758 net.cpp:106] Creating Layer res4f_branch2b
I0705 13:49:19.950404  8758 net.cpp:454] res4f_branch2b <- res4f_branch2a
I0705 13:49:19.950410  8758 net.cpp:411] res4f_branch2b -> res4f_branch2b
I0705 13:49:19.953275  8758 net.cpp:150] Setting up res4f_branch2b
I0705 13:49:19.953290  8758 net.cpp:157] Top shape: 1 256 38 63 (612864)
I0705 13:49:19.953294  8758 net.cpp:165] Memory required for data: 2587736916
I0705 13:49:19.953299  8758 layer_factory.hpp:77] Creating layer bn4f_branch2b
I0705 13:49:19.953306  8758 net.cpp:106] Creating Layer bn4f_branch2b
I0705 13:49:19.953310  8758 net.cpp:454] bn4f_branch2b <- res4f_branch2b
I0705 13:49:19.953315  8758 net.cpp:397] bn4f_branch2b -> res4f_branch2b (in-place)
I0705 13:49:19.953543  8758 net.cpp:150] Setting up bn4f_branch2b
I0705 13:49:19.953552  8758 net.cpp:157] Top shape: 1 256 38 63 (612864)
I0705 13:49:19.953555  8758 net.cpp:165] Memory required for data: 2590188372
I0705 13:49:19.953562  8758 layer_factory.hpp:77] Creating layer scale4f_branch2b
I0705 13:49:19.953567  8758 net.cpp:106] Creating Layer scale4f_branch2b
I0705 13:49:19.953570  8758 net.cpp:454] scale4f_branch2b <- res4f_branch2b
I0705 13:49:19.953577  8758 net.cpp:397] scale4f_branch2b -> res4f_branch2b (in-place)
I0705 13:49:19.953620  8758 layer_factory.hpp:77] Creating layer scale4f_branch2b
I0705 13:49:19.953776  8758 net.cpp:150] Setting up scale4f_branch2b
I0705 13:49:19.953783  8758 net.cpp:157] Top shape: 1 256 38 63 (612864)
I0705 13:49:19.953786  8758 net.cpp:165] Memory required for data: 2592639828
I0705 13:49:19.953791  8758 layer_factory.hpp:77] Creating layer res4f_branch2b_relu
I0705 13:49:19.953797  8758 net.cpp:106] Creating Layer res4f_branch2b_relu
I0705 13:49:19.953800  8758 net.cpp:454] res4f_branch2b_relu <- res4f_branch2b
I0705 13:49:19.953806  8758 net.cpp:397] res4f_branch2b_relu -> res4f_branch2b (in-place)
I0705 13:49:19.954010  8758 net.cpp:150] Setting up res4f_branch2b_relu
I0705 13:49:19.954021  8758 net.cpp:157] Top shape: 1 256 38 63 (612864)
I0705 13:49:19.954025  8758 net.cpp:165] Memory required for data: 2595091284
I0705 13:49:19.954028  8758 layer_factory.hpp:77] Creating layer res4f_branch2c
I0705 13:49:19.954048  8758 net.cpp:106] Creating Layer res4f_branch2c
I0705 13:49:19.954053  8758 net.cpp:454] res4f_branch2c <- res4f_branch2b
I0705 13:49:19.954058  8758 net.cpp:411] res4f_branch2c -> res4f_branch2c
I0705 13:49:19.955430  8758 net.cpp:150] Setting up res4f_branch2c
I0705 13:49:19.955456  8758 net.cpp:157] Top shape: 1 1024 38 63 (2451456)
I0705 13:49:19.955461  8758 net.cpp:165] Memory required for data: 2604897108
I0705 13:49:19.955466  8758 layer_factory.hpp:77] Creating layer bn4f_branch2c
I0705 13:49:19.955471  8758 net.cpp:106] Creating Layer bn4f_branch2c
I0705 13:49:19.955476  8758 net.cpp:454] bn4f_branch2c <- res4f_branch2c
I0705 13:49:19.955482  8758 net.cpp:397] bn4f_branch2c -> res4f_branch2c (in-place)
I0705 13:49:19.955718  8758 net.cpp:150] Setting up bn4f_branch2c
I0705 13:49:19.955727  8758 net.cpp:157] Top shape: 1 1024 38 63 (2451456)
I0705 13:49:19.955730  8758 net.cpp:165] Memory required for data: 2614702932
I0705 13:49:19.955760  8758 layer_factory.hpp:77] Creating layer scale4f_branch2c
I0705 13:49:19.955767  8758 net.cpp:106] Creating Layer scale4f_branch2c
I0705 13:49:19.955770  8758 net.cpp:454] scale4f_branch2c <- res4f_branch2c
I0705 13:49:19.955775  8758 net.cpp:397] scale4f_branch2c -> res4f_branch2c (in-place)
I0705 13:49:19.955823  8758 layer_factory.hpp:77] Creating layer scale4f_branch2c
I0705 13:49:19.955958  8758 net.cpp:150] Setting up scale4f_branch2c
I0705 13:49:19.955966  8758 net.cpp:157] Top shape: 1 1024 38 63 (2451456)
I0705 13:49:19.955970  8758 net.cpp:165] Memory required for data: 2624508756
I0705 13:49:19.955979  8758 layer_factory.hpp:77] Creating layer res4f
I0705 13:49:19.955986  8758 net.cpp:106] Creating Layer res4f
I0705 13:49:19.955991  8758 net.cpp:454] res4f <- res4e_res4e_relu_0_split_1
I0705 13:49:19.955994  8758 net.cpp:454] res4f <- res4f_branch2c
I0705 13:49:19.955999  8758 net.cpp:411] res4f -> res4f
I0705 13:49:19.956028  8758 net.cpp:150] Setting up res4f
I0705 13:49:19.956035  8758 net.cpp:157] Top shape: 1 1024 38 63 (2451456)
I0705 13:49:19.956038  8758 net.cpp:165] Memory required for data: 2634314580
I0705 13:49:19.956040  8758 layer_factory.hpp:77] Creating layer res4f_relu
I0705 13:49:19.956045  8758 net.cpp:106] Creating Layer res4f_relu
I0705 13:49:19.956048  8758 net.cpp:454] res4f_relu <- res4f
I0705 13:49:19.956054  8758 net.cpp:397] res4f_relu -> res4f (in-place)
I0705 13:49:19.956259  8758 net.cpp:150] Setting up res4f_relu
I0705 13:49:19.956269  8758 net.cpp:157] Top shape: 1 1024 38 63 (2451456)
I0705 13:49:19.956272  8758 net.cpp:165] Memory required for data: 2644120404
I0705 13:49:19.956275  8758 layer_factory.hpp:77] Creating layer res4f_res4f_relu_0_split
I0705 13:49:19.956280  8758 net.cpp:106] Creating Layer res4f_res4f_relu_0_split
I0705 13:49:19.956284  8758 net.cpp:454] res4f_res4f_relu_0_split <- res4f
I0705 13:49:19.956290  8758 net.cpp:411] res4f_res4f_relu_0_split -> res4f_res4f_relu_0_split_0
I0705 13:49:19.956296  8758 net.cpp:411] res4f_res4f_relu_0_split -> res4f_res4f_relu_0_split_1
I0705 13:49:19.956343  8758 net.cpp:150] Setting up res4f_res4f_relu_0_split
I0705 13:49:19.956351  8758 net.cpp:157] Top shape: 1 1024 38 63 (2451456)
I0705 13:49:19.956354  8758 net.cpp:157] Top shape: 1 1024 38 63 (2451456)
I0705 13:49:19.956357  8758 net.cpp:165] Memory required for data: 2663732052
I0705 13:49:19.956359  8758 layer_factory.hpp:77] Creating layer rpn_conv/3x3
I0705 13:49:19.956369  8758 net.cpp:106] Creating Layer rpn_conv/3x3
I0705 13:49:19.956373  8758 net.cpp:454] rpn_conv/3x3 <- res4f_res4f_relu_0_split_0
I0705 13:49:19.956380  8758 net.cpp:411] rpn_conv/3x3 -> rpn/output
I0705 13:49:20.005375  8758 net.cpp:150] Setting up rpn_conv/3x3
I0705 13:49:20.005403  8758 net.cpp:157] Top shape: 1 512 38 63 (1225728)
I0705 13:49:20.005408  8758 net.cpp:165] Memory required for data: 2668634964
I0705 13:49:20.005414  8758 layer_factory.hpp:77] Creating layer rpn_relu/3x3
I0705 13:49:20.005420  8758 net.cpp:106] Creating Layer rpn_relu/3x3
I0705 13:49:20.005424  8758 net.cpp:454] rpn_relu/3x3 <- rpn/output
I0705 13:49:20.005429  8758 net.cpp:397] rpn_relu/3x3 -> rpn/output (in-place)
I0705 13:49:20.005666  8758 net.cpp:150] Setting up rpn_relu/3x3
I0705 13:49:20.005677  8758 net.cpp:157] Top shape: 1 512 38 63 (1225728)
I0705 13:49:20.005681  8758 net.cpp:165] Memory required for data: 2673537876
I0705 13:49:20.005683  8758 layer_factory.hpp:77] Creating layer rpn/output_rpn_relu/3x3_0_split
I0705 13:49:20.005689  8758 net.cpp:106] Creating Layer rpn/output_rpn_relu/3x3_0_split
I0705 13:49:20.005692  8758 net.cpp:454] rpn/output_rpn_relu/3x3_0_split <- rpn/output
I0705 13:49:20.005699  8758 net.cpp:411] rpn/output_rpn_relu/3x3_0_split -> rpn/output_rpn_relu/3x3_0_split_0
I0705 13:49:20.005707  8758 net.cpp:411] rpn/output_rpn_relu/3x3_0_split -> rpn/output_rpn_relu/3x3_0_split_1
I0705 13:49:20.005761  8758 net.cpp:150] Setting up rpn/output_rpn_relu/3x3_0_split
I0705 13:49:20.005769  8758 net.cpp:157] Top shape: 1 512 38 63 (1225728)
I0705 13:49:20.005772  8758 net.cpp:157] Top shape: 1 512 38 63 (1225728)
I0705 13:49:20.005775  8758 net.cpp:165] Memory required for data: 2683343700
I0705 13:49:20.005779  8758 layer_factory.hpp:77] Creating layer rpn_cls_score
I0705 13:49:20.005789  8758 net.cpp:106] Creating Layer rpn_cls_score
I0705 13:49:20.005792  8758 net.cpp:454] rpn_cls_score <- rpn/output_rpn_relu/3x3_0_split_0
I0705 13:49:20.005800  8758 net.cpp:411] rpn_cls_score -> rpn_cls_score
I0705 13:49:20.007237  8758 net.cpp:150] Setting up rpn_cls_score
I0705 13:49:20.007251  8758 net.cpp:157] Top shape: 1 30 38 63 (71820)
I0705 13:49:20.007266  8758 net.cpp:165] Memory required for data: 2683630980
I0705 13:49:20.007272  8758 layer_factory.hpp:77] Creating layer rpn_cls_score_rpn_cls_score_0_split
I0705 13:49:20.007278  8758 net.cpp:106] Creating Layer rpn_cls_score_rpn_cls_score_0_split
I0705 13:49:20.007283  8758 net.cpp:454] rpn_cls_score_rpn_cls_score_0_split <- rpn_cls_score
I0705 13:49:20.007288  8758 net.cpp:411] rpn_cls_score_rpn_cls_score_0_split -> rpn_cls_score_rpn_cls_score_0_split_0
I0705 13:49:20.007295  8758 net.cpp:411] rpn_cls_score_rpn_cls_score_0_split -> rpn_cls_score_rpn_cls_score_0_split_1
I0705 13:49:20.007355  8758 net.cpp:150] Setting up rpn_cls_score_rpn_cls_score_0_split
I0705 13:49:20.007362  8758 net.cpp:157] Top shape: 1 30 38 63 (71820)
I0705 13:49:20.007366  8758 net.cpp:157] Top shape: 1 30 38 63 (71820)
I0705 13:49:20.007369  8758 net.cpp:165] Memory required for data: 2684205540
I0705 13:49:20.007371  8758 layer_factory.hpp:77] Creating layer rpn_bbox_pred
I0705 13:49:20.007381  8758 net.cpp:106] Creating Layer rpn_bbox_pred
I0705 13:49:20.007385  8758 net.cpp:454] rpn_bbox_pred <- rpn/output_rpn_relu/3x3_0_split_1
I0705 13:49:20.007392  8758 net.cpp:411] rpn_bbox_pred -> rpn_bbox_pred
I0705 13:49:20.008950  8758 net.cpp:150] Setting up rpn_bbox_pred
I0705 13:49:20.008965  8758 net.cpp:157] Top shape: 1 60 38 63 (143640)
I0705 13:49:20.008978  8758 net.cpp:165] Memory required for data: 2684780100
I0705 13:49:20.008986  8758 layer_factory.hpp:77] Creating layer rpn_bbox_pred_rpn_bbox_pred_0_split
I0705 13:49:20.008993  8758 net.cpp:106] Creating Layer rpn_bbox_pred_rpn_bbox_pred_0_split
I0705 13:49:20.008997  8758 net.cpp:454] rpn_bbox_pred_rpn_bbox_pred_0_split <- rpn_bbox_pred
I0705 13:49:20.009002  8758 net.cpp:411] rpn_bbox_pred_rpn_bbox_pred_0_split -> rpn_bbox_pred_rpn_bbox_pred_0_split_0
I0705 13:49:20.009009  8758 net.cpp:411] rpn_bbox_pred_rpn_bbox_pred_0_split -> rpn_bbox_pred_rpn_bbox_pred_0_split_1
I0705 13:49:20.009070  8758 net.cpp:150] Setting up rpn_bbox_pred_rpn_bbox_pred_0_split
I0705 13:49:20.009078  8758 net.cpp:157] Top shape: 1 60 38 63 (143640)
I0705 13:49:20.009081  8758 net.cpp:157] Top shape: 1 60 38 63 (143640)
I0705 13:49:20.009084  8758 net.cpp:165] Memory required for data: 2685929220
I0705 13:49:20.009088  8758 layer_factory.hpp:77] Creating layer rpn_cls_score_reshape
I0705 13:49:20.009093  8758 net.cpp:106] Creating Layer rpn_cls_score_reshape
I0705 13:49:20.009097  8758 net.cpp:454] rpn_cls_score_reshape <- rpn_cls_score_rpn_cls_score_0_split_0
I0705 13:49:20.009102  8758 net.cpp:411] rpn_cls_score_reshape -> rpn_cls_score_reshape
I0705 13:49:20.009136  8758 net.cpp:150] Setting up rpn_cls_score_reshape
I0705 13:49:20.009143  8758 net.cpp:157] Top shape: 1 2 570 63 (71820)
I0705 13:49:20.009145  8758 net.cpp:165] Memory required for data: 2686216500
I0705 13:49:20.009148  8758 layer_factory.hpp:77] Creating layer rpn_cls_score_reshape_rpn_cls_score_reshape_0_split
I0705 13:49:20.009153  8758 net.cpp:106] Creating Layer rpn_cls_score_reshape_rpn_cls_score_reshape_0_split
I0705 13:49:20.009156  8758 net.cpp:454] rpn_cls_score_reshape_rpn_cls_score_reshape_0_split <- rpn_cls_score_reshape
I0705 13:49:20.009161  8758 net.cpp:411] rpn_cls_score_reshape_rpn_cls_score_reshape_0_split -> rpn_cls_score_reshape_rpn_cls_score_reshape_0_split_0
I0705 13:49:20.009168  8758 net.cpp:411] rpn_cls_score_reshape_rpn_cls_score_reshape_0_split -> rpn_cls_score_reshape_rpn_cls_score_reshape_0_split_1
I0705 13:49:20.009209  8758 net.cpp:150] Setting up rpn_cls_score_reshape_rpn_cls_score_reshape_0_split
I0705 13:49:20.009217  8758 net.cpp:157] Top shape: 1 2 570 63 (71820)
I0705 13:49:20.009220  8758 net.cpp:157] Top shape: 1 2 570 63 (71820)
I0705 13:49:20.009222  8758 net.cpp:165] Memory required for data: 2686791060
I0705 13:49:20.009225  8758 layer_factory.hpp:77] Creating layer rpn-data
…
I0705 23:41:22.672762  9423 net.cpp:454] res4d_res4d_relu_0_split <- res4d
I0705 23:41:22.672766  9423 net.cpp:411] res4d_res4d_relu_0_split -> res4d_res4d_relu_0_split_0
I0705 23:41:22.672775  9423 net.cpp:411] res4d_res4d_relu_0_split -> res4d_res4d_relu_0_split_1
I0705 23:41:22.672827  9423 net.cpp:150] Setting up res4d_res4d_relu_0_split
I0705 23:41:22.672832  9423 net.cpp:157] Top shape: 1 1024 14 14 (200704)
I0705 23:41:22.672837  9423 net.cpp:157] Top shape: 1 1024 14 14 (200704)
I0705 23:41:22.672838  9423 net.cpp:165] Memory required for data: 205520896
I0705 23:41:22.672842  9423 layer_factory.hpp:77] Creating layer res4e_branch2a
I0705 23:41:22.672849  9423 net.cpp:106] Creating Layer res4e_branch2a
I0705 23:41:22.672852  9423 net.cpp:454] res4e_branch2a <- res4d_res4d_relu_0_split_0
I0705 23:41:22.672858  9423 net.cpp:411] res4e_branch2a -> res4e_branch2a
I0705 23:41:22.674051  9423 net.cpp:150] Setting up res4e_branch2a
I0705 23:41:22.674063  9423 net.cpp:157] Top shape: 1 256 14 14 (50176)
I0705 23:41:22.674075  9423 net.cpp:165] Memory required for data: 205721600
I0705 23:41:22.674080  9423 layer_factory.hpp:77] Creating layer bn4e_branch2a
I0705 23:41:22.674088  9423 net.cpp:106] Creating Layer bn4e_branch2a
I0705 23:41:22.674091  9423 net.cpp:454] bn4e_branch2a <- res4e_branch2a
I0705 23:41:22.674108  9423 net.cpp:397] bn4e_branch2a -> res4e_branch2a (in-place)
I0705 23:41:22.674304  9423 net.cpp:150] Setting up bn4e_branch2a
I0705 23:41:22.674312  9423 net.cpp:157] Top shape: 1 256 14 14 (50176)
I0705 23:41:22.674315  9423 net.cpp:165] Memory required for data: 205922304
I0705 23:41:22.674321  9423 layer_factory.hpp:77] Creating layer scale4e_branch2a
I0705 23:41:22.674327  9423 net.cpp:106] Creating Layer scale4e_branch2a
I0705 23:41:22.674331  9423 net.cpp:454] scale4e_branch2a <- res4e_branch2a
I0705 23:41:22.674335  9423 net.cpp:397] scale4e_branch2a -> res4e_branch2a (in-place)
I0705 23:41:22.674376  9423 layer_factory.hpp:77] Creating layer scale4e_branch2a
I0705 23:41:22.674535  9423 net.cpp:150] Setting up scale4e_branch2a
I0705 23:41:22.674543  9423 net.cpp:157] Top shape: 1 256 14 14 (50176)
I0705 23:41:22.674546  9423 net.cpp:165] Memory required for data: 206123008
I0705 23:41:22.674551  9423 layer_factory.hpp:77] Creating layer res4e_branch2a_relu
I0705 23:41:22.674557  9423 net.cpp:106] Creating Layer res4e_branch2a_relu
I0705 23:41:22.674561  9423 net.cpp:454] res4e_branch2a_relu <- res4e_branch2a
I0705 23:41:22.674566  9423 net.cpp:397] res4e_branch2a_relu -> res4e_branch2a (in-place)
I0705 23:41:22.674762  9423 net.cpp:150] Setting up res4e_branch2a_relu
I0705 23:41:22.674772  9423 net.cpp:157] Top shape: 1 256 14 14 (50176)
I0705 23:41:22.674774  9423 net.cpp:165] Memory required for data: 206323712
I0705 23:41:22.674777  9423 layer_factory.hpp:77] Creating layer res4e_branch2b
I0705 23:41:22.674784  9423 net.cpp:106] Creating Layer res4e_branch2b
I0705 23:41:22.674788  9423 net.cpp:454] res4e_branch2b <- res4e_branch2a
I0705 23:41:22.674793  9423 net.cpp:411] res4e_branch2b -> res4e_branch2b
I0705 23:41:22.677439  9423 net.cpp:150] Setting up res4e_branch2b
I0705 23:41:22.677453  9423 net.cpp:157] Top shape: 1 256 14 14 (50176)
I0705 23:41:22.677466  9423 net.cpp:165] Memory required for data: 206524416
I0705 23:41:22.677471  9423 layer_factory.hpp:77] Creating layer bn4e_branch2b
I0705 23:41:22.677477  9423 net.cpp:106] Creating Layer bn4e_branch2b
I0705 23:41:22.677480  9423 net.cpp:454] bn4e_branch2b <- res4e_branch2b
I0705 23:41:22.677486  9423 net.cpp:397] bn4e_branch2b -> res4e_branch2b (in-place)
I0705 23:41:22.677691  9423 net.cpp:150] Setting up bn4e_branch2b
I0705 23:41:22.677700  9423 net.cpp:157] Top shape: 1 256 14 14 (50176)
I0705 23:41:22.677702  9423 net.cpp:165] Memory required for data: 206725120
I0705 23:41:22.677709  9423 layer_factory.hpp:77] Creating layer scale4e_branch2b
I0705 23:41:22.677716  9423 net.cpp:106] Creating Layer scale4e_branch2b
I0705 23:41:22.677718  9423 net.cpp:454] scale4e_branch2b <- res4e_branch2b
I0705 23:41:22.677722  9423 net.cpp:397] scale4e_branch2b -> res4e_branch2b (in-place)
I0705 23:41:22.677762  9423 layer_factory.hpp:77] Creating layer scale4e_branch2b
I0705 23:41:22.677871  9423 net.cpp:150] Setting up scale4e_branch2b
I0705 23:41:22.677878  9423 net.cpp:157] Top shape: 1 256 14 14 (50176)
I0705 23:41:22.677881  9423 net.cpp:165] Memory required for data: 206925824
I0705 23:41:22.677886  9423 layer_factory.hpp:77] Creating layer res4e_branch2b_relu
I0705 23:41:22.677892  9423 net.cpp:106] Creating Layer res4e_branch2b_relu
I0705 23:41:22.677896  9423 net.cpp:454] res4e_branch2b_relu <- res4e_branch2b
I0705 23:41:22.677899  9423 net.cpp:397] res4e_branch2b_relu -> res4e_branch2b (in-place)
I0705 23:41:22.678095  9423 net.cpp:150] Setting up res4e_branch2b_relu
I0705 23:41:22.678105  9423 net.cpp:157] Top shape: 1 256 14 14 (50176)
I0705 23:41:22.678108  9423 net.cpp:165] Memory required for data: 207126528
I0705 23:41:22.678112  9423 layer_factory.hpp:77] Creating layer res4e_branch2c
I0705 23:41:22.678118  9423 net.cpp:106] Creating Layer res4e_branch2c
I0705 23:41:22.678122  9423 net.cpp:454] res4e_branch2c <- res4e_branch2b
I0705 23:41:22.678128  9423 net.cpp:411] res4e_branch2c -> res4e_branch2c
I0705 23:41:22.680181  9423 net.cpp:150] Setting up res4e_branch2c
I0705 23:41:22.680205  9423 net.cpp:157] Top shape: 1 1024 14 14 (200704)
I0705 23:41:22.680208  9423 net.cpp:165] Memory required for data: 207929344
I0705 23:41:22.680214  9423 layer_factory.hpp:77] Creating layer bn4e_branch2c
I0705 23:41:22.680219  9423 net.cpp:106] Creating Layer bn4e_branch2c
I0705 23:41:22.680223  9423 net.cpp:454] bn4e_branch2c <- res4e_branch2c
I0705 23:41:22.680228  9423 net.cpp:397] bn4e_branch2c -> res4e_branch2c (in-place)
I0705 23:41:22.680433  9423 net.cpp:150] Setting up bn4e_branch2c
I0705 23:41:22.680440  9423 net.cpp:157] Top shape: 1 1024 14 14 (200704)
I0705 23:41:22.680444  9423 net.cpp:165] Memory required for data: 208732160
I0705 23:41:22.680449  9423 layer_factory.hpp:77] Creating layer scale4e_branch2c
I0705 23:41:22.680454  9423 net.cpp:106] Creating Layer scale4e_branch2c
I0705 23:41:22.680457  9423 net.cpp:454] scale4e_branch2c <- res4e_branch2c
I0705 23:41:22.680461  9423 net.cpp:397] scale4e_branch2c -> res4e_branch2c (in-place)
I0705 23:41:22.680511  9423 layer_factory.hpp:77] Creating layer scale4e_branch2c
I0705 23:41:22.680634  9423 net.cpp:150] Setting up scale4e_branch2c
I0705 23:41:22.680641  9423 net.cpp:157] Top shape: 1 1024 14 14 (200704)
I0705 23:41:22.680644  9423 net.cpp:165] Memory required for data: 209534976
I0705 23:41:22.680650  9423 layer_factory.hpp:77] Creating layer res4e
I0705 23:41:22.680655  9423 net.cpp:106] Creating Layer res4e
I0705 23:41:22.680658  9423 net.cpp:454] res4e <- res4d_res4d_relu_0_split_1
I0705 23:41:22.680662  9423 net.cpp:454] res4e <- res4e_branch2c
I0705 23:41:22.680666  9423 net.cpp:411] res4e -> res4e
I0705 23:41:22.680692  9423 net.cpp:150] Setting up res4e
I0705 23:41:22.680699  9423 net.cpp:157] Top shape: 1 1024 14 14 (200704)
I0705 23:41:22.680702  9423 net.cpp:165] Memory required for data: 210337792
I0705 23:41:22.680704  9423 layer_factory.hpp:77] Creating layer res4e_relu
I0705 23:41:22.680709  9423 net.cpp:106] Creating Layer res4e_relu
I0705 23:41:22.680712  9423 net.cpp:454] res4e_relu <- res4e
I0705 23:41:22.680718  9423 net.cpp:397] res4e_relu -> res4e (in-place)
I0705 23:41:22.681273  9423 net.cpp:150] Setting up res4e_relu
I0705 23:41:22.681286  9423 net.cpp:157] Top shape: 1 1024 14 14 (200704)
I0705 23:41:22.681299  9423 net.cpp:165] Memory required for data: 211140608
I0705 23:41:22.681303  9423 layer_factory.hpp:77] Creating layer res4e_res4e_relu_0_split
I0705 23:41:22.681308  9423 net.cpp:106] Creating Layer res4e_res4e_relu_0_split
I0705 23:41:22.681311  9423 net.cpp:454] res4e_res4e_relu_0_split <- res4e
I0705 23:41:22.681318  9423 net.cpp:411] res4e_res4e_relu_0_split -> res4e_res4e_relu_0_split_0
I0705 23:41:22.681324  9423 net.cpp:411] res4e_res4e_relu_0_split -> res4e_res4e_relu_0_split_1
I0705 23:41:22.681375  9423 net.cpp:150] Setting up res4e_res4e_relu_0_split
I0705 23:41:22.681381  9423 net.cpp:157] Top shape: 1 1024 14 14 (200704)
I0705 23:41:22.681385  9423 net.cpp:157] Top shape: 1 1024 14 14 (200704)
I0705 23:41:22.681387  9423 net.cpp:165] Memory required for data: 212746240
I0705 23:41:22.681390  9423 layer_factory.hpp:77] Creating layer res4f_branch2a
I0705 23:41:22.681397  9423 net.cpp:106] Creating Layer res4f_branch2a
I0705 23:41:22.681401  9423 net.cpp:454] res4f_branch2a <- res4e_res4e_relu_0_split_0
I0705 23:41:22.681406  9423 net.cpp:411] res4f_branch2a -> res4f_branch2a
I0705 23:41:22.682294  9423 net.cpp:150] Setting up res4f_branch2a
I0705 23:41:22.682305  9423 net.cpp:157] Top shape: 1 256 14 14 (50176)
I0705 23:41:22.682318  9423 net.cpp:165] Memory required for data: 212946944
I0705 23:41:22.682323  9423 layer_factory.hpp:77] Creating layer bn4f_branch2a
I0705 23:41:22.682328  9423 net.cpp:106] Creating Layer bn4f_branch2a
I0705 23:41:22.682332  9423 net.cpp:454] bn4f_branch2a <- res4f_branch2a
I0705 23:41:22.682337  9423 net.cpp:397] bn4f_branch2a -> res4f_branch2a (in-place)
I0705 23:41:22.682570  9423 net.cpp:150] Setting up bn4f_branch2a
I0705 23:41:22.682580  9423 net.cpp:157] Top shape: 1 256 14 14 (50176)
I0705 23:41:22.682584  9423 net.cpp:165] Memory required for data: 213147648
I0705 23:41:22.682590  9423 layer_factory.hpp:77] Creating layer scale4f_branch2a
I0705 23:41:22.682595  9423 net.cpp:106] Creating Layer scale4f_branch2a
I0705 23:41:22.682598  9423 net.cpp:454] scale4f_branch2a <- res4f_branch2a
I0705 23:41:22.682610  9423 net.cpp:397] scale4f_branch2a -> res4f_branch2a (in-place)
I0705 23:41:22.682654  9423 layer_factory.hpp:77] Creating layer scale4f_branch2a
I0705 23:41:22.682783  9423 net.cpp:150] Setting up scale4f_branch2a
I0705 23:41:22.682791  9423 net.cpp:157] Top shape: 1 256 14 14 (50176)
I0705 23:41:22.682795  9423 net.cpp:165] Memory required for data: 213348352
I0705 23:41:22.682801  9423 layer_factory.hpp:77] Creating layer res4f_branch2a_relu
I0705 23:41:22.682804  9423 net.cpp:106] Creating Layer res4f_branch2a_relu
I0705 23:41:22.682807  9423 net.cpp:454] res4f_branch2a_relu <- res4f_branch2a
I0705 23:41:22.682812  9423 net.cpp:397] res4f_branch2a_relu -> res4f_branch2a (in-place)
I0705 23:41:22.683365  9423 net.cpp:150] Setting up res4f_branch2a_relu
I0705 23:41:22.683377  9423 net.cpp:157] Top shape: 1 256 14 14 (50176)
I0705 23:41:22.683380  9423 net.cpp:165] Memory required for data: 213549056
I0705 23:41:22.683383  9423 layer_factory.hpp:77] Creating layer res4f_branch2b
I0705 23:41:22.683389  9423 net.cpp:106] Creating Layer res4f_branch2b
I0705 23:41:22.683393  9423 net.cpp:454] res4f_branch2b <- res4f_branch2a
I0705 23:41:22.683400  9423 net.cpp:411] res4f_branch2b -> res4f_branch2b
I0705 23:41:22.686005  9423 net.cpp:150] Setting up res4f_branch2b
I0705 23:41:22.686018  9423 net.cpp:157] Top shape: 1 256 14 14 (50176)
I0705 23:41:22.686022  9423 net.cpp:165] Memory required for data: 213749760
I0705 23:41:22.686026  9423 layer_factory.hpp:77] Creating layer bn4f_branch2b
I0705 23:41:22.686033  9423 net.cpp:106] Creating Layer bn4f_branch2b
I0705 23:41:22.686046  9423 net.cpp:454] bn4f_branch2b <- res4f_branch2b
I0705 23:41:22.686050  9423 net.cpp:397] bn4f_branch2b -> res4f_branch2b (in-place)
I0705 23:41:22.686270  9423 net.cpp:150] Setting up bn4f_branch2b
I0705 23:41:22.686278  9423 net.cpp:157] Top shape: 1 256 14 14 (50176)
I0705 23:41:22.686281  9423 net.cpp:165] Memory required for data: 213950464
I0705 23:41:22.686288  9423 layer_factory.hpp:77] Creating layer scale4f_branch2b
I0705 23:41:22.686293  9423 net.cpp:106] Creating Layer scale4f_branch2b
I0705 23:41:22.686296  9423 net.cpp:454] scale4f_branch2b <- res4f_branch2b
I0705 23:41:22.686300  9423 net.cpp:397] scale4f_branch2b -> res4f_branch2b (in-place)
I0705 23:41:22.686342  9423 layer_factory.hpp:77] Creating layer scale4f_branch2b
I0705 23:41:22.686499  9423 net.cpp:150] Setting up scale4f_branch2b
I0705 23:41:22.686508  9423 net.cpp:157] Top shape: 1 256 14 14 (50176)
I0705 23:41:22.686511  9423 net.cpp:165] Memory required for data: 214151168
I0705 23:41:22.686517  9423 layer_factory.hpp:77] Creating layer res4f_branch2b_relu
I0705 23:41:22.686522  9423 net.cpp:106] Creating Layer res4f_branch2b_relu
I0705 23:41:22.686524  9423 net.cpp:454] res4f_branch2b_relu <- res4f_branch2b
I0705 23:41:22.686530  9423 net.cpp:397] res4f_branch2b_relu -> res4f_branch2b (in-place)
I0705 23:41:22.686735  9423 net.cpp:150] Setting up res4f_branch2b_relu
I0705 23:41:22.686745  9423 net.cpp:157] Top shape: 1 256 14 14 (50176)
I0705 23:41:22.686748  9423 net.cpp:165] Memory required for data: 214351872
I0705 23:41:22.686751  9423 layer_factory.hpp:77] Creating layer res4f_branch2c
I0705 23:41:22.686761  9423 net.cpp:106] Creating Layer res4f_branch2c
I0705 23:41:22.686764  9423 net.cpp:454] res4f_branch2c <- res4f_branch2b
I0705 23:41:22.686770  9423 net.cpp:411] res4f_branch2c -> res4f_branch2c
I0705 23:41:22.688899  9423 net.cpp:150] Setting up res4f_branch2c
I0705 23:41:22.688912  9423 net.cpp:157] Top shape: 1 1024 14 14 (200704)
I0705 23:41:22.688915  9423 net.cpp:165] Memory required for data: 215154688
I0705 23:41:22.688920  9423 layer_factory.hpp:77] Creating layer bn4f_branch2c
I0705 23:41:22.688938  9423 net.cpp:106] Creating Layer bn4f_branch2c
I0705 23:41:22.688941  9423 net.cpp:454] bn4f_branch2c <- res4f_branch2c
I0705 23:41:22.688946  9423 net.cpp:397] bn4f_branch2c -> res4f_branch2c (in-place)
I0705 23:41:22.689151  9423 net.cpp:150] Setting up bn4f_branch2c
I0705 23:41:22.689158  9423 net.cpp:157] Top shape: 1 1024 14 14 (200704)
I0705 23:41:22.689162  9423 net.cpp:165] Memory required for data: 215957504
I0705 23:41:22.689190  9423 layer_factory.hpp:77] Creating layer scale4f_branch2c
I0705 23:41:22.689198  9423 net.cpp:106] Creating Layer scale4f_branch2c
I0705 23:41:22.689201  9423 net.cpp:454] scale4f_branch2c <- res4f_branch2c
I0705 23:41:22.689205  9423 net.cpp:397] scale4f_branch2c -> res4f_branch2c (in-place)
I0705 23:41:22.689256  9423 layer_factory.hpp:77] Creating layer scale4f_branch2c
I0705 23:41:22.689376  9423 net.cpp:150] Setting up scale4f_branch2c
I0705 23:41:22.689384  9423 net.cpp:157] Top shape: 1 1024 14 14 (200704)
I0705 23:41:22.689388  9423 net.cpp:165] Memory required for data: 216760320
I0705 23:41:22.689393  9423 layer_factory.hpp:77] Creating layer res4f
I0705 23:41:22.689397  9423 net.cpp:106] Creating Layer res4f
I0705 23:41:22.689400  9423 net.cpp:454] res4f <- res4e_res4e_relu_0_split_1
I0705 23:41:22.689404  9423 net.cpp:454] res4f <- res4f_branch2c
I0705 23:41:22.689410  9423 net.cpp:411] res4f -> res4f
I0705 23:41:22.689437  9423 net.cpp:150] Setting up res4f
I0705 23:41:22.689445  9423 net.cpp:157] Top shape: 1 1024 14 14 (200704)
I0705 23:41:22.689446  9423 net.cpp:165] Memory required for data: 217563136
I0705 23:41:22.689450  9423 layer_factory.hpp:77] Creating layer res4f_relu
I0705 23:41:22.689455  9423 net.cpp:106] Creating Layer res4f_relu
I0705 23:41:22.689457  9423 net.cpp:454] res4f_relu <- res4f
I0705 23:41:22.689461  9423 net.cpp:397] res4f_relu -> res4f (in-place)
I0705 23:41:22.689646  9423 net.cpp:150] Setting up res4f_relu
I0705 23:41:22.689656  9423 net.cpp:157] Top shape: 1 1024 14 14 (200704)
I0705 23:41:22.689658  9423 net.cpp:165] Memory required for data: 218365952
I0705 23:41:22.689661  9423 layer_factory.hpp:77] Creating layer res4f_res4f_relu_0_split
I0705 23:41:22.689667  9423 net.cpp:106] Creating Layer res4f_res4f_relu_0_split
I0705 23:41:22.689671  9423 net.cpp:454] res4f_res4f_relu_0_split <- res4f
I0705 23:41:22.689677  9423 net.cpp:411] res4f_res4f_relu_0_split -> res4f_res4f_relu_0_split_0
I0705 23:41:22.689683  9423 net.cpp:411] res4f_res4f_relu_0_split -> res4f_res4f_relu_0_split_1
I0705 23:41:22.689726  9423 net.cpp:150] Setting up res4f_res4f_relu_0_split
I0705 23:41:22.689736  9423 net.cpp:157] Top shape: 1 1024 14 14 (200704)
I0705 23:41:22.689740  9423 net.cpp:157] Top shape: 1 1024 14 14 (200704)
I0705 23:41:22.689743  9423 net.cpp:165] Memory required for data: 219971584
I0705 23:41:22.689745  9423 layer_factory.hpp:77] Creating layer rpn_conv/3x3
I0705 23:41:22.689755  9423 net.cpp:106] Creating Layer rpn_conv/3x3
I0705 23:41:22.689759  9423 net.cpp:454] rpn_conv/3x3 <- res4f_res4f_relu_0_split_0
I0705 23:41:22.689764  9423 net.cpp:411] rpn_conv/3x3 -> rpn/output
I0705 23:41:22.738376  9423 net.cpp:150] Setting up rpn_conv/3x3
I0705 23:41:22.738427  9423 net.cpp:157] Top shape: 1 512 14 14 (100352)
I0705 23:41:22.738431  9423 net.cpp:165] Memory required for data: 220372992
I0705 23:41:22.738440  9423 layer_factory.hpp:77] Creating layer rpn_relu/3x3
I0705 23:41:22.738449  9423 net.cpp:106] Creating Layer rpn_relu/3x3
I0705 23:41:22.738454  9423 net.cpp:454] rpn_relu/3x3 <- rpn/output
I0705 23:41:22.738461  9423 net.cpp:397] rpn_relu/3x3 -> rpn/output (in-place)
I0705 23:41:22.738680  9423 net.cpp:150] Setting up rpn_relu/3x3
I0705 23:41:22.738692  9423 net.cpp:157] Top shape: 1 512 14 14 (100352)
I0705 23:41:22.738706  9423 net.cpp:165] Memory required for data: 220774400
I0705 23:41:22.738709  9423 layer_factory.hpp:77] Creating layer rpn/output_rpn_relu/3x3_0_split
I0705 23:41:22.738715  9423 net.cpp:106] Creating Layer rpn/output_rpn_relu/3x3_0_split
I0705 23:41:22.738718  9423 net.cpp:454] rpn/output_rpn_relu/3x3_0_split <- rpn/output
I0705 23:41:22.738723  9423 net.cpp:411] rpn/output_rpn_relu/3x3_0_split -> rpn/output_rpn_relu/3x3_0_split_0
I0705 23:41:22.738731  9423 net.cpp:411] rpn/output_rpn_relu/3x3_0_split -> rpn/output_rpn_relu/3x3_0_split_1
I0705 23:41:22.738783  9423 net.cpp:150] Setting up rpn/output_rpn_relu/3x3_0_split
I0705 23:41:22.738790  9423 net.cpp:157] Top shape: 1 512 14 14 (100352)
I0705 23:41:22.738795  9423 net.cpp:157] Top shape: 1 512 14 14 (100352)
I0705 23:41:22.738796  9423 net.cpp:165] Memory required for data: 221577216
I0705 23:41:22.738800  9423 layer_factory.hpp:77] Creating layer rpn_cls_score
I0705 23:41:22.738811  9423 net.cpp:106] Creating Layer rpn_cls_score
I0705 23:41:22.738814  9423 net.cpp:454] rpn_cls_score <- rpn/output_rpn_relu/3x3_0_split_0
I0705 23:41:22.738821  9423 net.cpp:411] rpn_cls_score -> rpn_cls_score
I0705 23:41:22.740145  9423 net.cpp:150] Setting up rpn_cls_score
I0705 23:41:22.740170  9423 net.cpp:157] Top shape: 1 30 14 14 (5880)
I0705 23:41:22.740173  9423 net.cpp:165] Memory required for data: 221600736
I0705 23:41:22.740180  9423 layer_factory.hpp:77] Creating layer rpn_bbox_pred
I0705 23:41:22.740190  9423 net.cpp:106] Creating Layer rpn_bbox_pred
I0705 23:41:22.740192  9423 net.cpp:454] rpn_bbox_pred <- rpn/output_rpn_relu/3x3_0_split_1
I0705 23:41:22.740209  9423 net.cpp:411] rpn_bbox_pred -> rpn_bbox_pred
I0705 23:41:22.741675  9423 net.cpp:150] Setting up rpn_bbox_pred
I0705 23:41:22.741688  9423 net.cpp:157] Top shape: 1 60 14 14 (11760)
I0705 23:41:22.741701  9423 net.cpp:165] Memory required for data: 221647776
I0705 23:41:22.741708  9423 layer_factory.hpp:77] Creating layer rpn_cls_score_reshape
I0705 23:41:22.741716  9423 net.cpp:106] Creating Layer rpn_cls_score_reshape
I0705 23:41:22.741720  9423 net.cpp:454] rpn_cls_score_reshape <- rpn_cls_score
I0705 23:41:22.741727  9423 net.cpp:411] rpn_cls_score_reshape -> rpn_cls_score_reshape
I0705 23:41:22.741772  9423 net.cpp:150] Setting up rpn_cls_score_reshape
I0705 23:41:22.741781  9423 net.cpp:157] Top shape: 1 2 210 14 (5880)
I0705 23:41:22.741783  9423 net.cpp:165] Memory required for data: 221671296
I0705 23:41:22.741786  9423 layer_factory.hpp:77] Creating layer rpn_cls_prob
I0705 23:41:22.741793  9423 net.cpp:106] Creating Layer rpn_cls_prob
I0705 23:41:22.741796  9423 net.cpp:454] rpn_cls_prob <- rpn_cls_score_reshape
I0705 23:41:22.741801  9423 net.cpp:411] rpn_cls_prob -> rpn_cls_prob
I0705 23:41:22.742054  9423 net.cpp:150] Setting up rpn_cls_prob
I0705 23:41:22.742064  9423 net.cpp:157] Top shape: 1 2 210 14 (5880)
I0705 23:41:22.742067  9423 net.cpp:165] Memory required for data: 221694816
I0705 23:41:22.742070  9423 layer_factory.hpp:77] Creating layer rpn_cls_prob_reshape
I0705 23:41:22.742075  9423 net.cpp:106] Creating Layer rpn_cls_prob_reshape
I0705 23:41:22.742080  9423 net.cpp:454] rpn_cls_prob_reshape <- rpn_cls_prob
I0705 23:41:22.742085  9423 net.cpp:411] rpn_cls_prob_reshape -> rpn_cls_prob_reshape
I0705 23:41:22.742116  9423 net.cpp:150] Setting up rpn_cls_prob_reshape
I0705 23:41:22.742123  9423 net.cpp:157] Top shape: 1 30 14 14 (5880)
I0705 23:41:22.742126  9423 net.cpp:165] Memory required for data: 221718336
I0705 23:41:22.742130  9423 layer_factory.hpp:77] Creating layer proposal
I0705 23:41:22.742569  9423 net.cpp:106] Creating Layer proposal
I0705 23:41:22.742583  9423 net.cpp:454] proposal <- rpn_cls_prob_reshape
I0705 23:41:22.742588  9423 net.cpp:454] proposal <- rpn_bbox_pred
I0705 23:41:22.742591  9423 net.cpp:454] proposal <- im_info
I0705 23:41:22.742596  9423 net.cpp:411] proposal -> rois
I0705 23:41:22.743268  9423 net.cpp:150] Setting up proposal
I0705 23:41:22.743281  9423 net.cpp:157] Top shape: 1 5 (5)
I0705 23:41:22.743295  9423 net.cpp:165] Memory required for data: 221718356
I0705 23:41:22.743299  9423 layer_factory.hpp:77] Creating layer roi_pool5
I0705 23:41:22.743305  9423 net.cpp:106] Creating Layer roi_pool5
I0705 23:41:22.743311  9423 net.cpp:454] roi_pool5 <- res4f_res4f_relu_0_split_1
I0705 23:41:22.743316  9423 net.cpp:454] roi_pool5 <- rois
I0705 23:41:22.743321  9423 net.cpp:411] roi_pool5 -> roi_pool5
I0705 23:41:22.743329  9423 roi_pooling_layer.cpp:30] Spatial scale: 0.0625
I0705 23:41:22.743396  9423 net.cpp:150] Setting up roi_pool5
I0705 23:41:22.743404  9423 net.cpp:157] Top shape: 1 1024 14 14 (200704)
I0705 23:41:22.743407  9423 net.cpp:165] Memory required for data: 222521172
I0705 23:41:22.743410  9423 layer_factory.hpp:77] Creating layer roi_pool5_roi_pool5_0_split
I0705 23:41:22.743415  9423 net.cpp:106] Creating Layer roi_pool5_roi_pool5_0_split
I0705 23:41:22.743418  9423 net.cpp:454] roi_pool5_roi_pool5_0_split <- roi_pool5
I0705 23:41:22.743424  9423 net.cpp:411] roi_pool5_roi_pool5_0_split -> roi_pool5_roi_pool5_0_split_0
I0705 23:41:22.743430  9423 net.cpp:411] roi_pool5_roi_pool5_0_split -> roi_pool5_roi_pool5_0_split_1
I0705 23:41:22.743469  9423 net.cpp:150] Setting up roi_pool5_roi_pool5_0_split
I0705 23:41:22.743476  9423 net.cpp:157] Top shape: 1 1024 14 14 (200704)
I0705 23:41:22.743479  9423 net.cpp:157] Top shape: 1 1024 14 14 (200704)
I0705 23:41:22.743482  9423 net.cpp:165] Memory required for data: 224126804
I0705 23:41:22.743485  9423 layer_factory.hpp:77] Creating layer res5a_branch1
I0705 23:41:22.743495  9423 net.cpp:106] Creating Layer res5a_branch1
I0705 23:41:22.743499  9423 net.cpp:454] res5a_branch1 <- roi_pool5_roi_pool5_0_split_0
I0705 23:41:22.743505  9423 net.cpp:411] res5a_branch1 -> res5a_branch1
I0705 23:41:22.748561  9423 net.cpp:150] Setting up res5a_branch1
I0705 23:41:22.748587  9423 net.cpp:157] Top shape: 1 2048 7 7 (100352)
I0705 23:41:22.748590  9423 net.cpp:165] Memory required for data: 224528212
I0705 23:41:22.748595  9423 layer_factory.hpp:77] Creating layer bn5a_branch1
I0705 23:41:22.748603  9423 net.cpp:106] Creating Layer bn5a_branch1
I0705 23:41:22.748606  9423 net.cpp:454] bn5a_branch1 <- res5a_branch1
I0705 23:41:22.748612  9423 net.cpp:397] bn5a_branch1 -> res5a_branch1 (in-place)
I0705 23:41:22.748844  9423 net.cpp:150] Setting up bn5a_branch1
I0705 23:41:22.748853  9423 net.cpp:157] Top shape: 1 2048 7 7 (100352)
I0705 23:41:22.748857  9423 net.cpp:165] Memory required for data: 224929620
I0705 23:41:22.748862  9423 layer_factory.hpp:77] Creating layer scale5a_branch1
I0705 23:41:22.748868  9423 net.cpp:106] Creating Layer scale5a_branch1
I0705 23:41:22.748872  9423 net.cpp:454] scale5a_branch1 <- res5a_branch1
I0705 23:41:22.748878  9423 net.cpp:397] scale5a_branch1 -> res5a_branch1 (in-place)
I0705 23:41:22.748919  9423 layer_factory.hpp:77] Creating layer scale5a_branch1
I0705 23:41:22.749045  9423 net.cpp:150] Setting up scale5a_branch1
I0705 23:41:22.749053  9423 net.cpp:157] Top shape: 1 2048 7 7 (100352)
I0705 23:41:22.749056  9423 net.cpp:165] Memory required for data: 225331028
I0705 23:41:22.749061  9423 layer_factory.hpp:77] Creating layer res5a_branch2a
I0705 23:41:22.749068  9423 net.cpp:106] Creating Layer res5a_branch2a
I0705 23:41:22.749071  9423 net.cpp:454] res5a_branch2a <- roi_pool5_roi_pool5_0_split_1
I0705 23:41:22.749078  9423 net.cpp:411] res5a_branch2a -> res5a_branch2a
I0705 23:41:22.751405  9423 net.cpp:150] Setting up res5a_branch2a
I0705 23:41:22.751420  9423 net.cpp:157] Top shape: 1 512 7 7 (25088)
I0705 23:41:22.751435  9423 net.cpp:165] Memory required for data: 225431380
I0705 23:41:22.751440  9423 layer_factory.hpp:77] Creating layer bn5a_branch2a
I0705 23:41:22.751446  9423 net.cpp:106] Creating Layer bn5a_branch2a
I0705 23:41:22.751451  9423 net.cpp:454] bn5a_branch2a <- res5a_branch2a
I0705 23:41:22.751456  9423 net.cpp:397] bn5a_branch2a -> res5a_branch2a (in-place)
I0705 23:41:22.751693  9423 net.cpp:150] Setting up bn5a_branch2a
I0705 23:41:22.751703  9423 net.cpp:157] Top shape: 1 512 7 7 (25088)
I0705 23:41:22.751705  9423 net.cpp:165] Memory required for data: 225531732
I0705 23:41:22.751711  9423 layer_factory.hpp:77] Creating layer scale5a_branch2a
I0705 23:41:22.751718  9423 net.cpp:106] Creating Layer scale5a_branch2a
I0705 23:41:22.751720  9423 net.cpp:454] scale5a_branch2a <- res5a_branch2a
I0705 23:41:22.751725  9423 net.cpp:397] scale5a_branch2a -> res5a_branch2a (in-place)
I0705 23:41:22.751765  9423 layer_factory.hpp:77] Creating layer scale5a_branch2a
I0705 23:41:22.751891  9423 net.cpp:150] Setting up scale5a_branch2a
I0705 23:41:22.751899  9423 net.cpp:157] Top shape: 1 512 7 7 (25088)
I0705 23:41:22.751902  9423 net.cpp:165] Memory required for data: 225632084
I0705 23:41:22.751907  9423 layer_factory.hpp:77] Creating layer res5a_branch2a_relu
I0705 23:41:22.751912  9423 net.cpp:106] Creating Layer res5a_branch2a_relu
I0705 23:41:22.751915  9423 net.cpp:454] res5a_branch2a_relu <- res5a_branch2a
I0705 23:41:22.751919  9423 net.cpp:397] res5a_branch2a_relu -> res5a_branch2a (in-place)
I0705 23:41:22.752112  9423 net.cpp:150] Setting up res5a_branch2a_relu
I0705 23:41:22.752122  9423 net.cpp:157] Top shape: 1 512 7 7 (25088)
I0705 23:41:22.752125  9423 net.cpp:165] Memory required for data: 225732436
I0705 23:41:22.752128  9423 layer_factory.hpp:77] Creating layer res5a_branch2b
I0705 23:41:22.752136  9423 net.cpp:106] Creating Layer res5a_branch2b
I0705 23:41:22.752140  9423 net.cpp:454] res5a_branch2b <- res5a_branch2a
I0705 23:41:22.752146  9423 net.cpp:411] res5a_branch2b -> res5a_branch2b
I0705 23:41:22.757772  9423 net.cpp:150] Setting up res5a_branch2b
I0705 23:41:22.757797  9423 net.cpp:157] Top shape: 1 512 7 7 (25088)
I0705 23:41:22.757800  9423 net.cpp:165] Memory required for data: 225832788
I0705 23:41:22.757808  9423 layer_factory.hpp:77] Creating layer bn5a_branch2b
I0705 23:41:22.757822  9423 net.cpp:106] Creating Layer bn5a_branch2b
I0705 23:41:22.757827  9423 net.cpp:454] bn5a_branch2b <- res5a_branch2b
I0705 23:41:22.757833  9423 net.cpp:397] bn5a_branch2b -> res5a_branch2b (in-place)
I0705 23:41:22.758098  9423 net.cpp:150] Setting up bn5a_branch2b
I0705 23:41:22.758106  9423 net.cpp:157] Top shape: 1 512 7 7 (25088)
I0705 23:41:22.758111  9423 net.cpp:165] Memory required for data: 225933140
I0705 23:41:22.758117  9423 layer_factory.hpp:77] Creating layer scale5a_branch2b
I0705 23:41:22.758123  9423 net.cpp:106] Creating Layer scale5a_branch2b
I0705 23:41:22.758126  9423 net.cpp:454] scale5a_branch2b <- res5a_branch2b
I0705 23:41:22.758131  9423 net.cpp:397] scale5a_branch2b -> res5a_branch2b (in-place)
I0705 23:41:22.758184  9423 layer_factory.hpp:77] Creating layer scale5a_branch2b
I0705 23:41:22.758318  9423 net.cpp:150] Setting up scale5a_branch2b
I0705 23:41:22.758327  9423 net.cpp:157] Top shape: 1 512 7 7 (25088)
I0705 23:41:22.758329  9423 net.cpp:165] Memory required for data: 226033492
I0705 23:41:22.758334  9423 layer_factory.hpp:77] Creating layer res5a_branch2b_relu
I0705 23:41:22.758339  9423 net.cpp:106] Creating Layer res5a_branch2b_relu
I0705 23:41:22.758343  9423 net.cpp:454] res5a_branch2b_relu <- res5a_branch2b
I0705 23:41:22.758349  9423 net.cpp:397] res5a_branch2b_relu -> res5a_branch2b (in-place)
I0705 23:41:22.758951  9423 net.cpp:150] Setting up res5a_branch2b_relu
I0705 23:41:22.758965  9423 net.cpp:157] Top shape: 1 512 7 7 (25088)
I0705 23:41:22.758976  9423 net.cpp:165] Memory required for data: 226133844
I0705 23:41:22.758980  9423 layer_factory.hpp:77] Creating layer res5a_branch2c
I0705 23:41:22.758991  9423 net.cpp:106] Creating Layer res5a_branch2c
I0705 23:41:22.758993  9423 net.cpp:454] res5a_branch2c <- res5a_branch2b
I0705 23:41:22.759008  9423 net.cpp:411] res5a_branch2c -> res5a_branch2c
I0705 23:41:22.761767  9423 net.cpp:150] Setting up res5a_branch2c
I0705 23:41:22.761780  9423 net.cpp:157] Top shape: 1 2048 7 7 (100352)
I0705 23:41:22.761783  9423 net.cpp:165] Memory required for data: 226535252
I0705 23:41:22.761788  9423 layer_factory.hpp:77] Creating layer bn5a_branch2c
I0705 23:41:22.761795  9423 net.cpp:106] Creating Layer bn5a_branch2c
I0705 23:41:22.761799  9423 net.cpp:454] bn5a_branch2c <- res5a_branch2c
I0705 23:41:22.761816  9423 net.cpp:397] bn5a_branch2c -> res5a_branch2c (in-place)
I0705 23:41:22.762045  9423 net.cpp:150] Setting up bn5a_branch2c
I0705 23:41:22.762053  9423 net.cpp:157] Top shape: 1 2048 7 7 (100352)
I0705 23:41:22.762056  9423 net.cpp:165] Memory required for data: 226936660
I0705 23:41:22.762063  9423 layer_factory.hpp:77] Creating layer scale5a_branch2c
I0705 23:41:22.762068  9423 net.cpp:106] Creating Layer scale5a_branch2c
I0705 23:41:22.762070  9423 net.cpp:454] scale5a_branch2c <- res5a_branch2c
I0705 23:41:22.762074  9423 net.cpp:397] scale5a_branch2c -> res5a_branch2c (in-place)
I0705 23:41:22.762118  9423 layer_factory.hpp:77] Creating layer scale5a_branch2c
I0705 23:41:22.762245  9423 net.cpp:150] Setting up scale5a_branch2c
I0705 23:41:22.762253  9423 net.cpp:157] Top shape: 1 2048 7 7 (100352)
I0705 23:41:22.762256  9423 net.cpp:165] Memory required for data: 227338068
I0705 23:41:22.762261  9423 layer_factory.hpp:77] Creating layer res5a
I0705 23:41:22.762267  9423 net.cpp:106] Creating Layer res5a
I0705 23:41:22.762271  9423 net.cpp:454] res5a <- res5a_branch1
I0705 23:41:22.762274  9423 net.cpp:454] res5a <- res5a_branch2c
I0705 23:41:22.762279  9423 net.cpp:411] res5a -> res5a
I0705 23:41:22.762307  9423 net.cpp:150] Setting up res5a
I0705 23:41:22.762313  9423 net.cpp:157] Top shape: 1 2048 7 7 (100352)
I0705 23:41:22.762315  9423 net.cpp:165] Memory required for data: 227739476
I0705 23:41:22.762318  9423 layer_factory.hpp:77] Creating layer res5a_relu
I0705 23:41:22.762322  9423 net.cpp:106] Creating Layer res5a_relu
I0705 23:41:22.762326  9423 net.cpp:454] res5a_relu <- res5a
I0705 23:41:22.762331  9423 net.cpp:397] res5a_relu -> res5a (in-place)
I0705 23:41:22.762965  9423 net.cpp:150] Setting up res5a_relu
I0705 23:41:22.762979  9423 net.cpp:157] Top shape: 1 2048 7 7 (100352)
I0705 23:41:22.762981  9423 net.cpp:165] Memory required for data: 228140884
I0705 23:41:22.762985  9423 layer_factory.hpp:77] Creating layer res5a_res5a_relu_0_split
I0705 23:41:22.762991  9423 net.cpp:106] Creating Layer res5a_res5a_relu_0_split
I0705 23:41:22.762995  9423 net.cpp:454] res5a_res5a_relu_0_split <- res5a
I0705 23:41:22.763000  9423 net.cpp:411] res5a_res5a_relu_0_split -> res5a_res5a_relu_0_split_0
I0705 23:41:22.763020  9423 net.cpp:411] res5a_res5a_relu_0_split -> res5a_res5a_relu_0_split_1
I0705 23:41:22.763070  9423 net.cpp:150] Setting up res5a_res5a_relu_0_split
I0705 23:41:22.763078  9423 net.cpp:157] Top shape: 1 2048 7 7 (100352)
I0705 23:41:22.763082  9423 net.cpp:157] Top shape: 1 2048 7 7 (100352)
I0705 23:41:22.763085  9423 net.cpp:165] Memory required for data: 228943700
I0705 23:41:22.763088  9423 layer_factory.hpp:77] Creating layer res5b_branch2a
I0705 23:41:22.763097  9423 net.cpp:106] Creating Layer res5b_branch2a
I0705 23:41:22.763099  9423 net.cpp:454] res5b_branch2a <- res5a_res5a_relu_0_split_0
I0705 23:41:22.763104  9423 net.cpp:411] res5b_branch2a -> res5b_branch2a
I0705 23:41:22.766346  9423 net.cpp:150] Setting up res5b_branch2a
I0705 23:41:22.766360  9423 net.cpp:157] Top shape: 1 512 7 7 (25088)
I0705 23:41:22.766376  9423 net.cpp:165] Memory required for data: 229044052
I0705 23:41:22.766381  9423 layer_factory.hpp:77] Creating layer bn5b_branch2a
I0705 23:41:22.766403  9423 net.cpp:106] Creating Layer bn5b_branch2a
I0705 23:41:22.766408  9423 net.cpp:454] bn5b_branch2a <- res5b_branch2a
I0705 23:41:22.766414  9423 net.cpp:397] bn5b_branch2a -> res5b_branch2a (in-place)
I0705 23:41:22.766644  9423 net.cpp:150] Setting up bn5b_branch2a
I0705 23:41:22.766654  9423 net.cpp:157] Top shape: 1 512 7 7 (25088)
I0705 23:41:22.766657  9423 net.cpp:165] Memory required for data: 229144404
I0705 23:41:22.766664  9423 layer_factory.hpp:77] Creating layer scale5b_branch2a
I0705 23:41:22.766669  9423 net.cpp:106] Creating Layer scale5b_branch2a
I0705 23:41:22.766674  9423 net.cpp:454] scale5b_branch2a <- res5b_branch2a
I0705 23:41:22.766679  9423 net.cpp:397] scale5b_branch2a -> res5b_branch2a (in-place)
I0705 23:41:22.766721  9423 layer_factory.hpp:77] Creating layer scale5b_branch2a
I0705 23:41:22.766854  9423 net.cpp:150] Setting up scale5b_branch2a
I0705 23:41:22.766862  9423 net.cpp:157] Top shape: 1 512 7 7 (25088)
I0705 23:41:22.766865  9423 net.cpp:165] Memory required for data: 229244756
I0705 23:41:22.766870  9423 layer_factory.hpp:77] Creating layer res5b_branch2a_relu
I0705 23:41:22.766875  9423 net.cpp:106] Creating Layer res5b_branch2a_relu
I0705 23:41:22.766880  9423 net.cpp:454] res5b_branch2a_relu <- res5b_branch2a
I0705 23:41:22.766883  9423 net.cpp:397] res5b_branch2a_relu -> res5b_branch2a (in-place)
I0705 23:41:22.767077  9423 net.cpp:150] Setting up res5b_branch2a_relu
I0705 23:41:22.767086  9423 net.cpp:157] Top shape: 1 512 7 7 (25088)
I0705 23:41:22.767089  9423 net.cpp:165] Memory required for data: 229345108
I0705 23:41:22.767093  9423 layer_factory.hpp:77] Creating layer res5b_branch2b
I0705 23:41:22.767102  9423 net.cpp:106] Creating Layer res5b_branch2b
I0705 23:41:22.767104  9423 net.cpp:454] res5b_branch2b <- res5b_branch2a
I0705 23:41:22.767112  9423 net.cpp:411] res5b_branch2b -> res5b_branch2b
I0705 23:41:22.772833  9423 net.cpp:150] Setting up res5b_branch2b
I0705 23:41:22.772858  9423 net.cpp:157] Top shape: 1 512 7 7 (25088)
I0705 23:41:22.772861  9423 net.cpp:165] Memory required for data: 229445460
I0705 23:41:22.772867  9423 layer_factory.hpp:77] Creating layer bn5b_branch2b
I0705 23:41:22.772873  9423 net.cpp:106] Creating Layer bn5b_branch2b
I0705 23:41:22.772876  9423 net.cpp:454] bn5b_branch2b <- res5b_branch2b
I0705 23:41:22.772883  9423 net.cpp:397] bn5b_branch2b -> res5b_branch2b (in-place)
I0705 23:41:22.773111  9423 net.cpp:150] Setting up bn5b_branch2b
I0705 23:41:22.773120  9423 net.cpp:157] Top shape: 1 512 7 7 (25088)
I0705 23:41:22.773123  9423 net.cpp:165] Memory required for data: 229545812
I0705 23:41:22.773130  9423 layer_factory.hpp:77] Creating layer scale5b_branch2b
I0705 23:41:22.773135  9423 net.cpp:106] Creating Layer scale5b_branch2b
I0705 23:41:22.773138  9423 net.cpp:454] scale5b_branch2b <- res5b_branch2b
I0705 23:41:22.773144  9423 net.cpp:397] scale5b_branch2b -> res5b_branch2b (in-place)
I0705 23:41:22.773185  9423 layer_factory.hpp:77] Creating layer scale5b_branch2b
I0705 23:41:22.773314  9423 net.cpp:150] Setting up scale5b_branch2b
I0705 23:41:22.773322  9423 net.cpp:157] Top shape: 1 512 7 7 (25088)
I0705 23:41:22.773325  9423 net.cpp:165] Memory required for data: 229646164
I0705 23:41:22.773330  9423 layer_factory.hpp:77] Creating layer res5b_branch2b_relu
I0705 23:41:22.773335  9423 net.cpp:106] Creating Layer res5b_branch2b_relu
I0705 23:41:22.773339  9423 net.cpp:454] res5b_branch2b_relu <- res5b_branch2b
I0705 23:41:22.773342  9423 net.cpp:397] res5b_branch2b_relu -> res5b_branch2b (in-place)
I0705 23:41:22.773553  9423 net.cpp:150] Setting up res5b_branch2b_relu
I0705 23:41:22.773563  9423 net.cpp:157] Top shape: 1 512 7 7 (25088)
I0705 23:41:22.773566  9423 net.cpp:165] Memory required for data: 229746516
I0705 23:41:22.773569  9423 layer_factory.hpp:77] Creating layer res5b_branch2c
I0705 23:41:22.773577  9423 net.cpp:106] Creating Layer res5b_branch2c
I0705 23:41:22.773582  9423 net.cpp:454] res5b_branch2c <- res5b_branch2b
I0705 23:41:22.773587  9423 net.cpp:411] res5b_branch2c -> res5b_branch2c
I0705 23:41:22.776814  9423 net.cpp:150] Setting up res5b_branch2c
I0705 23:41:22.776829  9423 net.cpp:157] Top shape: 1 2048 7 7 (100352)
I0705 23:41:22.776844  9423 net.cpp:165] Memory required for data: 230147924
I0705 23:41:22.776849  9423 layer_factory.hpp:77] Creating layer bn5b_branch2c
I0705 23:41:22.776856  9423 net.cpp:106] Creating Layer bn5b_branch2c
I0705 23:41:22.776860  9423 net.cpp:454] bn5b_branch2c <- res5b_branch2c
I0705 23:41:22.776865  9423 net.cpp:397] bn5b_branch2c -> res5b_branch2c (in-place)
I0705 23:41:22.777138  9423 net.cpp:150] Setting up bn5b_branch2c
I0705 23:41:22.777146  9423 net.cpp:157] Top shape: 1 2048 7 7 (100352)
I0705 23:41:22.777150  9423 net.cpp:165] Memory required for data: 230549332
I0705 23:41:22.777158  9423 layer_factory.hpp:77] Creating layer scale5b_branch2c
I0705 23:41:22.777164  9423 net.cpp:106] Creating Layer scale5b_branch2c
I0705 23:41:22.777168  9423 net.cpp:454] scale5b_branch2c <- res5b_branch2c
I0705 23:41:22.777173  9423 net.cpp:397] scale5b_branch2c -> res5b_branch2c (in-place)
I0705 23:41:22.777216  9423 layer_factory.hpp:77] Creating layer scale5b_branch2c
I0705 23:41:22.777353  9423 net.cpp:150] Setting up scale5b_branch2c
I0705 23:41:22.777360  9423 net.cpp:157] Top shape: 1 2048 7 7 (100352)
I0705 23:41:22.777362  9423 net.cpp:165] Memory required for data: 230950740
I0705 23:41:22.777369  9423 layer_factory.hpp:77] Creating layer res5b
I0705 23:41:22.777374  9423 net.cpp:106] Creating Layer res5b
I0705 23:41:22.777379  9423 net.cpp:454] res5b <- res5a_res5a_relu_0_split_1
I0705 23:41:22.777382  9423 net.cpp:454] res5b <- res5b_branch2c
I0705 23:41:22.777387  9423 net.cpp:411] res5b -> res5b
I0705 23:41:22.777416  9423 net.cpp:150] Setting up res5b
I0705 23:41:22.777422  9423 net.cpp:157] Top shape: 1 2048 7 7 (100352)
I0705 23:41:22.777424  9423 net.cpp:165] Memory required for data: 231352148
I0705 23:41:22.777427  9423 layer_factory.hpp:77] Creating layer res5b_relu
I0705 23:41:22.777446  9423 net.cpp:106] Creating Layer res5b_relu
I0705 23:41:22.777449  9423 net.cpp:454] res5b_relu <- res5b
I0705 23:41:22.777452  9423 net.cpp:397] res5b_relu -> res5b (in-place)
I0705 23:41:22.777635  9423 net.cpp:150] Setting up res5b_relu
I0705 23:41:22.777644  9423 net.cpp:157] Top shape: 1 2048 7 7 (100352)
I0705 23:41:22.777647  9423 net.cpp:165] Memory required for data: 231753556
I0705 23:41:22.777650  9423 layer_factory.hpp:77] Creating layer res5b_res5b_relu_0_split
I0705 23:41:22.777670  9423 net.cpp:106] Creating Layer res5b_res5b_relu_0_split
I0705 23:41:22.777674  9423 net.cpp:454] res5b_res5b_relu_0_split <- res5b
I0705 23:41:22.777679  9423 net.cpp:411] res5b_res5b_relu_0_split -> res5b_res5b_relu_0_split_0
I0705 23:41:22.777685  9423 net.cpp:411] res5b_res5b_relu_0_split -> res5b_res5b_relu_0_split_1
I0705 23:41:22.777736  9423 net.cpp:150] Setting up res5b_res5b_relu_0_split
I0705 23:41:22.777745  9423 net.cpp:157] Top shape: 1 2048 7 7 (100352)
I0705 23:41:22.777747  9423 net.cpp:157] Top shape: 1 2048 7 7 (100352)
I0705 23:41:22.777750  9423 net.cpp:165] Memory required for data: 232556372
I0705 23:41:22.777753  9423 layer_factory.hpp:77] Creating layer res5c_branch2a
I0705 23:41:22.777761  9423 net.cpp:106] Creating Layer res5c_branch2a
I0705 23:41:22.777765  9423 net.cpp:454] res5c_branch2a <- res5b_res5b_relu_0_split_0
I0705 23:41:22.777770  9423 net.cpp:411] res5c_branch2a -> res5c_branch2a
I0705 23:41:22.780927  9423 net.cpp:150] Setting up res5c_branch2a
I0705 23:41:22.780941  9423 net.cpp:157] Top shape: 1 512 7 7 (25088)
I0705 23:41:22.780956  9423 net.cpp:165] Memory required for data: 232656724
I0705 23:41:22.780961  9423 layer_factory.hpp:77] Creating layer bn5c_branch2a
I0705 23:41:22.780967  9423 net.cpp:106] Creating Layer bn5c_branch2a
I0705 23:41:22.780972  9423 net.cpp:454] bn5c_branch2a <- res5c_branch2a
I0705 23:41:22.780977  9423 net.cpp:397] bn5c_branch2a -> res5c_branch2a (in-place)
I0705 23:41:22.781198  9423 net.cpp:150] Setting up bn5c_branch2a
I0705 23:41:22.781205  9423 net.cpp:157] Top shape: 1 512 7 7 (25088)
I0705 23:41:22.781208  9423 net.cpp:165] Memory required for data: 232757076
I0705 23:41:22.781215  9423 layer_factory.hpp:77] Creating layer scale5c_branch2a
I0705 23:41:22.781222  9423 net.cpp:106] Creating Layer scale5c_branch2a
I0705 23:41:22.781226  9423 net.cpp:454] scale5c_branch2a <- res5c_branch2a
I0705 23:41:22.781230  9423 net.cpp:397] scale5c_branch2a -> res5c_branch2a (in-place)
I0705 23:41:22.781271  9423 layer_factory.hpp:77] Creating layer scale5c_branch2a
I0705 23:41:22.781404  9423 net.cpp:150] Setting up scale5c_branch2a
I0705 23:41:22.781411  9423 net.cpp:157] Top shape: 1 512 7 7 (25088)
I0705 23:41:22.781414  9423 net.cpp:165] Memory required for data: 232857428
I0705 23:41:22.781419  9423 layer_factory.hpp:77] Creating layer res5c_branch2a_relu
I0705 23:41:22.781425  9423 net.cpp:106] Creating Layer res5c_branch2a_relu
I0705 23:41:22.781428  9423 net.cpp:454] res5c_branch2a_relu <- res5c_branch2a
I0705 23:41:22.781432  9423 net.cpp:397] res5c_branch2a_relu -> res5c_branch2a (in-place)
I0705 23:41:22.781620  9423 net.cpp:150] Setting up res5c_branch2a_relu
I0705 23:41:22.781628  9423 net.cpp:157] Top shape: 1 512 7 7 (25088)
I0705 23:41:22.781631  9423 net.cpp:165] Memory required for data: 232957780
I0705 23:41:22.781635  9423 layer_factory.hpp:77] Creating layer res5c_branch2b
I0705 23:41:22.781643  9423 net.cpp:106] Creating Layer res5c_branch2b
I0705 23:41:22.781646  9423 net.cpp:454] res5c_branch2b <- res5c_branch2a
I0705 23:41:22.781654  9423 net.cpp:411] res5c_branch2b -> res5c_branch2b
I0705 23:41:22.787387  9423 net.cpp:150] Setting up res5c_branch2b
I0705 23:41:22.787423  9423 net.cpp:157] Top shape: 1 512 7 7 (25088)
I0705 23:41:22.787427  9423 net.cpp:165] Memory required for data: 233058132
I0705 23:41:22.787436  9423 layer_factory.hpp:77] Creating layer bn5c_branch2b
I0705 23:41:22.787446  9423 net.cpp:106] Creating Layer bn5c_branch2b
I0705 23:41:22.787451  9423 net.cpp:454] bn5c_branch2b <- res5c_branch2b
I0705 23:41:22.787459  9423 net.cpp:397] bn5c_branch2b -> res5c_branch2b (in-place)
I0705 23:41:22.787729  9423 net.cpp:150] Setting up bn5c_branch2b
I0705 23:41:22.787739  9423 net.cpp:157] Top shape: 1 512 7 7 (25088)
I0705 23:41:22.787741  9423 net.cpp:165] Memory required for data: 233158484
I0705 23:41:22.787748  9423 layer_factory.hpp:77] Creating layer scale5c_branch2b
I0705 23:41:22.787755  9423 net.cpp:106] Creating Layer scale5c_branch2b
I0705 23:41:22.787760  9423 net.cpp:454] scale5c_branch2b <- res5c_branch2b
I0705 23:41:22.787763  9423 net.cpp:397] scale5c_branch2b -> res5c_branch2b (in-place)
I0705 23:41:22.787811  9423 layer_factory.hpp:77] Creating layer scale5c_branch2b
I0705 23:41:22.787951  9423 net.cpp:150] Setting up scale5c_branch2b
I0705 23:41:22.787959  9423 net.cpp:157] Top shape: 1 512 7 7 (25088)
I0705 23:41:22.787962  9423 net.cpp:165] Memory required for data: 233258836
I0705 23:41:22.787968  9423 layer_factory.hpp:77] Creating layer res5c_branch2b_relu
I0705 23:41:22.787976  9423 net.cpp:106] Creating Layer res5c_branch2b_relu
I0705 23:41:22.787979  9423 net.cpp:454] res5c_branch2b_relu <- res5c_branch2b
I0705 23:41:22.787983  9423 net.cpp:397] res5c_branch2b_relu -> res5c_branch2b (in-place)
I0705 23:41:22.788606  9423 net.cpp:150] Setting up res5c_branch2b_relu
I0705 23:41:22.788619  9423 net.cpp:157] Top shape: 1 512 7 7 (25088)
I0705 23:41:22.788633  9423 net.cpp:165] Memory required for data: 233359188
I0705 23:41:22.788637  9423 layer_factory.hpp:77] Creating layer res5c_branch2c
I0705 23:41:22.788646  9423 net.cpp:106] Creating Layer res5c_branch2c
I0705 23:41:22.788651  9423 net.cpp:454] res5c_branch2c <- res5c_branch2b
I0705 23:41:22.788658  9423 net.cpp:411] res5c_branch2c -> res5c_branch2c
I0705 23:41:22.791550  9423 net.cpp:150] Setting up res5c_branch2c
I0705 23:41:22.791564  9423 net.cpp:157] Top shape: 1 2048 7 7 (100352)
I0705 23:41:22.791579  9423 net.cpp:165] Memory required for data: 233760596
I0705 23:41:22.791584  9423 layer_factory.hpp:77] Creating layer bn5c_branch2c
I0705 23:41:22.791590  9423 net.cpp:106] Creating Layer bn5c_branch2c
I0705 23:41:22.791594  9423 net.cpp:454] bn5c_branch2c <- res5c_branch2c
I0705 23:41:22.791600  9423 net.cpp:397] bn5c_branch2c -> res5c_branch2c (in-place)
I0705 23:41:22.791851  9423 net.cpp:150] Setting up bn5c_branch2c
I0705 23:41:22.791859  9423 net.cpp:157] Top shape: 1 2048 7 7 (100352)
I0705 23:41:22.791863  9423 net.cpp:165] Memory required for data: 234162004
I0705 23:41:22.791870  9423 layer_factory.hpp:77] Creating layer scale5c_branch2c
I0705 23:41:22.791875  9423 net.cpp:106] Creating Layer scale5c_branch2c
I0705 23:41:22.791878  9423 net.cpp:454] scale5c_branch2c <- res5c_branch2c
I0705 23:41:22.791885  9423 net.cpp:397] scale5c_branch2c -> res5c_branch2c (in-place)
I0705 23:41:22.791929  9423 layer_factory.hpp:77] Creating layer scale5c_branch2c
I0705 23:41:22.792068  9423 net.cpp:150] Setting up scale5c_branch2c
I0705 23:41:22.792076  9423 net.cpp:157] Top shape: 1 2048 7 7 (100352)
I0705 23:41:22.792079  9423 net.cpp:165] Memory required for data: 234563412
I0705 23:41:22.792084  9423 layer_factory.hpp:77] Creating layer res5c
I0705 23:41:22.792090  9423 net.cpp:106] Creating Layer res5c
I0705 23:41:22.792093  9423 net.cpp:454] res5c <- res5b_res5b_relu_0_split_1
I0705 23:41:22.792098  9423 net.cpp:454] res5c <- res5c_branch2c
I0705 23:41:22.792102  9423 net.cpp:411] res5c -> res5c
I0705 23:41:22.792132  9423 net.cpp:150] Setting up res5c
I0705 23:41:22.792141  9423 net.cpp:157] Top shape: 1 2048 7 7 (100352)
I0705 23:41:22.792143  9423 net.cpp:165] Memory required for data: 234964820
I0705 23:41:22.792146  9423 layer_factory.hpp:77] Creating layer res5c_relu
I0705 23:41:22.792151  9423 net.cpp:106] Creating Layer res5c_relu
I0705 23:41:22.792155  9423 net.cpp:454] res5c_relu <- res5c
I0705 23:41:22.792158  9423 net.cpp:397] res5c_relu -> res5c (in-place)
I0705 23:41:22.792769  9423 net.cpp:150] Setting up res5c_relu
I0705 23:41:22.792781  9423 net.cpp:157] Top shape: 1 2048 7 7 (100352)
I0705 23:41:22.792796  9423 net.cpp:165] Memory required for data: 235366228
I0705 23:41:22.792799  9423 layer_factory.hpp:77] Creating layer pool5
I0705 23:41:22.792807  9423 net.cpp:106] Creating Layer pool5
I0705 23:41:22.792811  9423 net.cpp:454] pool5 <- res5c
I0705 23:41:22.792816  9423 net.cpp:411] pool5 -> pool5
I0705 23:41:22.793028  9423 net.cpp:150] Setting up pool5
I0705 23:41:22.793038  9423 net.cpp:157] Top shape: 1 2048 1 1 (2048)
I0705 23:41:22.793041  9423 net.cpp:165] Memory required for data: 235374420
I0705 23:41:22.793045  9423 layer_factory.hpp:77] Creating layer pool5_pool5_0_split
I0705 23:41:22.793051  9423 net.cpp:106] Creating Layer pool5_pool5_0_split
I0705 23:41:22.793056  9423 net.cpp:454] pool5_pool5_0_split <- pool5
I0705 23:41:22.793059  9423 net.cpp:411] pool5_pool5_0_split -> pool5_pool5_0_split_0
I0705 23:41:22.793066  9423 net.cpp:411] pool5_pool5_0_split -> pool5_pool5_0_split_1
I0705 23:41:22.793112  9423 net.cpp:150] Setting up pool5_pool5_0_split
I0705 23:41:22.793120  9423 net.cpp:157] Top shape: 1 2048 1 1 (2048)
I0705 23:41:22.793123  9423 net.cpp:157] Top shape: 1 2048 1 1 (2048)
I0705 23:41:22.793126  9423 net.cpp:165] Memory required for data: 235390804
I0705 23:41:22.793128  9423 layer_factory.hpp:77] Creating layer cls_score
I0705 23:41:22.793138  9423 net.cpp:106] Creating Layer cls_score
I0705 23:41:22.793140  9423 net.cpp:454] cls_score <- pool5_pool5_0_split_0
I0705 23:41:22.793145  9423 net.cpp:411] cls_score -> cls_score
I0705 23:41:22.793774  9423 net.cpp:150] Setting up cls_score
I0705 23:41:22.793783  9423 net.cpp:157] Top shape: 1 24 (24)
I0705 23:41:22.793786  9423 net.cpp:165] Memory required for data: 235390900
I0705 23:41:22.793802  9423 layer_factory.hpp:77] Creating layer bbox_pred
I0705 23:41:22.793810  9423 net.cpp:106] Creating Layer bbox_pred
I0705 23:41:22.793813  9423 net.cpp:454] bbox_pred <- pool5_pool5_0_split_1
I0705 23:41:22.793818  9423 net.cpp:411] bbox_pred -> bbox_pred
I0705 23:41:22.795796  9423 net.cpp:150] Setting up bbox_pred
I0705 23:41:22.795805  9423 net.cpp:157] Top shape: 1 96 (96)
I0705 23:41:22.795817  9423 net.cpp:165] Memory required for data: 235391284
I0705 23:41:22.795823  9423 layer_factory.hpp:77] Creating layer cls_prob
I0705 23:41:22.795871  9423 net.cpp:106] Creating Layer cls_prob
I0705 23:41:22.795876  9423 net.cpp:454] cls_prob <- cls_score
I0705 23:41:22.795881  9423 net.cpp:411] cls_prob -> cls_prob
I0705 23:41:22.796144  9423 net.cpp:150] Setting up cls_prob
I0705 23:41:22.796154  9423 net.cpp:157] Top shape: 1 24 (24)
I0705 23:41:22.796157  9423 net.cpp:165] Memory required for data: 235391380
I0705 23:41:22.796161  9423 net.cpp:228] cls_prob does not need backward computation.
I0705 23:41:22.796164  9423 net.cpp:228] bbox_pred does not need backward computation.
I0705 23:41:22.796167  9423 net.cpp:228] cls_score does not need backward computation.
I0705 23:41:22.796170  9423 net.cpp:228] pool5_pool5_0_split does not need backward computation.
…
